p2_continous_control/model/p2_ddpg_critic.pth (torch_old, 601090 bytes, 5 tensors)

fcs1.weight f4 [512, 33]
00000000: eac0 0a3e 093c 333e 2783 343d d9ed 41bd
00000010: d517 84be c78e c1bd 55fa 143b 0a24 a6bd
00000020: c5d5 b43d 1073 283d 6bab dc3d d2b6 b6bd
00000030: 51e6 8c3d a9c8 a13d b881 00bd dde1 92bd
00000040: 499f 0a3d 3514 d93c df87 0c3c dd6e 863d
00000050: 959a d73c 530d a43c dfe7 463d 5fc5 6d3d
00000060: 9480 3b3d b287 f0bd e032 a23c 9b43 803e
00000070: 6a16 cf3d 7e7d 18bd f93d 64be 4af7 be3c
00000080: dd58 85be c0ae 5ebe 8eaa 6fbd 4e6e 193e
00000090: d70f e23c d337 003e aa0f 453d 96ce afbc
000000a0: 56e8 08bd 6b11 b23d 3319 493e 00dd 0b3e
000000b0: 1a40 4a3d aaed 783d d9ca 093e 03c4 b03d
000000c0: 5914 1abd c4b3 babd b973 d5bc 823a 653d
000000d0: cabf 283e 7b04 9bbd 2323 053e bad4 c7bd
000000e0: d721 e23b 6ed8 2cbd d85f c23c 1b56 3b3d
000000f0: 9382 2f3e c6cc 45bd 228b 1dbd bddc 1cbe
00000100: d1bc 063d 8ea3 33bf 5b54 6bbe 9f65 343e
00000110: 2bb8 89bd 3a86 aebd 2f6e 0a3c 6d6d 2bbc
00000120: 8879 84bb 1218 5ebb aa6b 3d3e 42e9 f43d
00000130: 0fd4 f43c 76d1 a93d 3e69 aa3d aac5 cf3d
00000140: 02b6 6cbd 133d 9fbc a6e1 bdbd aefc b03d
00000150: 385c 56be 5f39 acbd 00cd 663d a7e5 27bc
00000160: aec4 94be f7a4 df3c d9f2 acbc cde0 37bd
00000170: 33fc 6c3d b0b5 233e 8cba 543d de3b 8c3c
00000180: 67f0 13be 008a 6bbc ccc9 003e 2293 58bd
00000190: 24e7 55bc a1dd 00bc b953 e93c 4ca3 e33d
000001a0: 0dd7 0cbe 9115 ddbc ff8b 0e3d 216f 233d
000001b0: 5c34 e33d ec48 d6bc 01de 2bbd c4ed 9ebc
000001c0: 85e2 403d db65 ebbb b826 2d3c 2c8a 183c
000001d0: 22fc 9b3b 5819 cf3c 4b75 3bbd 7696 88ba
000001e0: efa7 81bb 2c08 7a3b 825d e83c 38ab 99bb
000001f0: 3a56 a4bc 95d5 0fbd 4486 853e fcf8 c7bd
00000200: e8bb 10bd ce12 89be 4004 423b 5f5c bc3f
00000210: 5307 01be e1f2 08be 0af8 72bd 641a 2cbd
00000220: 51eb bdbd 71cf 8fbd 0be0 8c3d ff0b b73c
00000230: 6ad2 a03d 48eb 933c 5ea2 b13d 9759 46bd
00000240: 9b5a 90bb 8801 323d fb58 bf3d a7ef 1bbd
00000250: d2e9 ff3d 8244 593c 2a92 96bd cec9 f33b
00000260: 82ff 2abd 836b 973d 99bd 9dbd 7a71 04be
00000270: 28da 80bc d8f1 2e3c 82e9 a23d 0648 2b3e
00000280: 84f6 1d3e 716f 1d3d 4345 29be 84a7 57bc
00000290: 345a 0bbe 41be d43d d09d 003e 1294 8a3b
000002a0: 0350 633d d73f 913d 731a a0bc 8881 223d
000002b0: 7d3e 3cbd 4cd0 613e 8157 fb3c c5ff 6dbd
000002c0: 2dcf bcbc c58c eebc 0cac 943d 0ee9 51bb
000002d0: 1091 bc3d 156a 5a3e ddf5 043e 011a 463c
000002e0: e703 e1b9 5c04 43bd 9112 3a3e 6d1a 53bd
000002f0: c208 983d c301 14bd 4af1 f63d b5c4 e0bd
00000300: bcf4 593e 8af0 643c 3450 acbc d673 5dbe
00000310: 62b3 57bc 35ac bfbd 0b95 b03d c704 ba3d
00000320: 0f9a 1d3e 8d0e c0bd 6719 393e 68af e4bd
00000330: e95f 9c3d aa76 a5bd 0c58 70be e02c af3d
00000340: 52e4 78bb c3f3 6a3b ecb6 9fbc 29ba 3dbe
00000350: 8447 44bd 35ed 33be 8466 e33c 9237 3b3d
00000360: 6f8e 6d3a 6c78 12bd ce20 f039 375c bfba
00000370: 78f6 ea3c da20 a1bd af19 d83c 3001 9cbd
00000380: 869f 193d 98b1 833e 98bb 243e b957 343d
00000390: e7d0 a0be 15fc 21bd 14f3 4a3f a4d9 503e
000003a0: f882 4f3d 467b 923d 1b13 18bc 195c 37be
000003b0: 6835 10bd a6c7 1dbc ca56 143c 08a2 98bd
000003c0: e1e8 5bbc 8d87 4b3d e4ae 9f3c 4d8f 903c
000003d0: 86ff 82be 7cd1 6bbd 859d 863d b4ba 97bd
000003e0: ee6d be3c ada0 8b3d 0649 a0bc a10f 633c
000003f0: 240f e5bc ebaf a3bd e6ed 71bd 3f62 403c
0.13550153 0.1750337 0.04407039 -0.04734597 -0.25799432 -0.09451061 0.0022732217 -0.08112343
0.08829836 0.041125357 0.10774883 -0.08921589 0.06879867 0.07899601 -0.03137371 -0.07171986
0.033843312 0.026498893 0.008577316 0.06564114 0.026318828 0.020025885 0.048560973 0.058049556
0.04577692 -0.11744632 0.01979965 0.2505158 0.10111697 -0.037229054 -0.22289266 0.023311276
-0.2604436 -0.2174635 -0.058512263 0.14983484 0.027595444 0.12521295 0.04811064 -0.021460813
-0.033424698 0.086947285 0.19638519 0.13658524 0.04937754 0.06077353 0.13456286 0.08631136
-0.03761706 -0.09116319 -0.026056157 0.055964 0.16479412 -0.07569214 0.13001685 -0.09757371
0.0069010067 -0.04219859 0.023727342 0.045736413 0.17139654 -0.04829099 -0.038462766 -0.1531858
0.032894913 -0.7017144 -0.22981398 0.1761689 -0.067245804 -0.085216954 0.008449121 -0.010463101
-0.004042808 -0.0033888859 0.18498102 0.11958553 0.029886274 0.08291905 0.083208546 0.10145123
-0.057790764 -0.019438302 -0.09271555 0.08641945 -0.20933616 -0.0840938 0.056347847 -0.0102476245
-0.29056305 0.027300341 -0.021111893 -0.04489212 0.057857703 0.15987277 0.051935717 0.01711839
-0.14447175 -0.0143761635 0.1257698 -0.05287469 -0.0130555965 -0.00786534 0.028482305 0.11115131
-0.1375391 -0.026987823 0.03480148 0.039900903 0.11093971 -0.026157819 -0.041959766 -0.019400485
0.047091026 -0.007183773 0.010568313 0.0093102865 0.004760281 0.02528064 -0.045766156 -0.0010420817
-0.003956787 0.0038151843 0.0283649 -0.0046896003 -0.020060647 -0.035115797 0.26079 -0.09764287
-0.03533545 -0.2677216 0.0029604584 1.471569 -0.1260045 -0.13373901 -0.05931858 -0.042017356
-0.09273399 -0.07021988 0.0687867 0.022344587 0.07852633 0.018056527 0.08673547 -0.048425283
-0.0044053323 0.04345849 0.093431436 -0.038070347 0.124957696 0.013260962 -0.07352097 0.0074398285
-0.041747577 0.07393553 -0.077021785 -0.12933913 -0.015729025 0.010677777 0.07954694 0.16726694
0.1542607 0.038436357 -0.16530327 -0.013162497 -0.13608629 0.103878506 0.125602 0.004229077
0.055496227 0.070922546 -0.019543862 0.039674312 -0.04595803 0.22052115 0.030681374 -0.05810525
-0.023048008 -0.029119859 0.07259378 -0.003202978 0.09207356 0.2132953 0.12984414 0.012091161
-0.00042918252 -0.04761158 0.18171145 -0.051538873 0.074235454 -0.036134493 0.12057741 -0.10975019
0.21284765 0.013973365 -0.021034338 -0.21626219 -0.013165327 -0.09359018 0.08622178 0.090829425
0.153908 -0.09377775 0.18076096 -0.111662686 0.07635481 -0.08079274 -0.23471087 0.08553481
-0.0037977886 0.003585086 -0.019496404 -0.18528046 -0.047919765 -0.17570956 0.027758844 0.045707293
0.0009062057 -0.035759374 0.0004580081 -0.0014599626 0.028681979 -0.07867594 0.026379434 -0.07617414
0.03750565 0.2572143 0.16087186 0.04402897 -0.3140938 -0.039547045 0.7927716 0.20395523
0.05066201 0.07152419 -0.009281899 -0.17906226 -0.035207182 -0.009630119 0.009053895 -0.0745278
-0.013422222 0.04968982 0.019492574 0.017646456 -0.25585574 -0.057572827 0.06573013 -0.07408658
0.023245778 0.06817756 -0.01956607 0.013858707 -0.027961321 -0.07992538 -0.05906477 0.011742174

fcs1.bias f4 [512]
00000000: cdf4 6dbe 56d9 19be e305 e0bd 5f69 ddbd
00000010: d189 ffbd 8142 4bbd 4611 e9be 3250 b2bd
00000020: 0862 b6be bd48 58bd b9bc 0bbe a089 c1be
00000030: ed54 b7bd 0063 c9be 870c 0abe 296e 84be
00000040: bcfd 29be 4836 88be e37b bebe 69a6 55be
00000050: 900d 34be fc59 bbbd 18e2 57be 6fcc d1bd
00000060: 46fd 88bd 1073 50be 2a41 6bbe e521 82bc
00000070: 543d e3be daaf 7f3d 2e65 24bd 9242 0dbd
00000080: 0eb1 1bbe c122 50be a7b2 7fbe 2c56 ecbd
00000090: d161 2fbe 1bc1 49be 3dd4 f3bd 673b b2be
000000a0: 1ab9 f8bd 93b2 6ebe 7daa 90bd eb11 64be
000000b0: 8d81 5e3c c431 86bd 6194 36be 059d e7bd
000000c0: 7dd9 1ebe fa8b 9dbe b8db ebbe f650 3bbe
000000d0: d8b3 cc3d 8451 d5bd b0ec a0be 13cd 9ebe
000000e0: 7e8e a63c ea8d 11be fcce a13d 5327 5c3c
000000f0: 3a3f a0bc f96e 65be 6e0b 50be 005a a6be
00000100: 36f1 38be 2f83 90be e9cd f3be 1e02 c4bd
00000110: 4ebc 31be 1ba3 a2bd ecd7 7ebe 9866 a0bd
00000120: 105b fbbd 6ebf 32be 8d7c 9fbe 78cd 5ebd
00000130: acb5 96be 4e99 2cbe aca2 26be d6dc 05bf
00000140: 3a8d c0bd cad5 12be 7d77 a7be f32d 89be
00000150: 31d3 8ebe 0f0b efbd b347 7bbe d961 c1bd
00000160: 7a3e 04be 66da 25be f324 3dbc 9a5b b5be
00000170: a2bd 4abd c7d6 30bd fccc 173c 9fb3 ce3b
00000180: 139f 8abe bcdf 9dbe 3af3 4fbe d31f 79be
00000190: 6ea4 8abe 64cd 4abe 9696 97be d55c 05be
000001a0: 25d6 a4bd 504d 59be da3f d3bd b646 b8be
000001b0: e1e0 74be 0de3 b0be 01d6 bcbd a714 31be
000001c0: 40aa 98bd a2ba c7be e9f0 00be 50df 19bd
000001d0: f7f2 93bd 3ec1 49be 6855 91be e776 7bbe
000001e0: f4ce 42be 9a87 acbe 8a7c eb3d 30a3 d8be
000001f0: 0368 0fbe 34bb b6bd c47e bdbe 3cdc b1bd
00000200: 80d3 a1be e03a c23d b278 7ebe cc1c 12be
00000210: 87d9 01be 411f 1fbe 8487 69bd b634 b6bc
00000220: 225b bfbe 1cd7 17be 6ed2 afbe da6b 36be
00000230: 0e44 bebe 1a05 d3be fc2b 89bd be2a 4dbe
00000240: 5ff9 c1bd 463f 37be cc2a 7fbe 13ca c5be
00000250: 4559 b5be a149 1cbe 0b1a 80bd 3f82 25be
00000260: f35e 1abe 1310 dc3d 2f39 f2bd 91d2 c3bd
00000270: 585a 67be 0234 1a3e 05da bebe de6a 8cbe
00000280: 30ca eabd 6396 95be 66c2 9ebd ba65 edbe
00000290: ccdf 0ebd 4ac7 2fbd 52d8 e5be 15c5 fcbe
000002a0: 5eac 07be 57c6 f4be fc8d b5be e403 3bbd
000002b0: e1f9 45be 1672 54be f708 32be 44a9 483d
000002c0: b1b6 f43c bdb0 e33c b52a 02be db3b bdbe
000002d0: 4170 afbd 25ca 963d d4e5 01bf 13ec 4ebe
000002e0: 96eb c9bd 33c4 d7bd a162 a9be b1c7 22be
000002f0: 3f7d 7fbe d558 02be 2bc6 23be ec57 e83c
00000300: 1acf 63bd e551 00be 3e40 3dbe a918 bb3d
00000310: 4d84 02be 34de cc3b 05c1 cf3d 8f68 66be
00000320: 281b 80be cb68 c0be 8a65 0abe 9cab b8be
00000330: 894f 75be 380f 29bd 96c1 1cbe 29e4 5abe
00000340: 3e38 8bbe d182 31bd 4e4a 843c 6df5 983c
00000350: 18c0 47bd 49ea 00be eb53 94be c73d 2bbe
00000360: 3d8a 9fbe ba41 b5be 3733 d9bd 7787 32be
00000370: 5dfb 75be 9a95 6cbd ac24 51be 4dd7 86bd
00000380: 67a0 8ebe 4c6f 38be 0d7b aebe 121f 79bd
00000390: 65ac 00bf f059 69be 31dc eebd b4bc 393e
000003a0: 6636 cbbe 6ff7 12be 989d bdbe 8fe5 05be
000003b0: c4eb 06bd 48a4 88be ad87 c5be d8aa 663c
000003c0: c206 6bbe d412 70be cf3c 4dbe 2a4a 54be
000003d0: 632c 9bbe 2ba5 fdbd 27c0 6ebe 7884 28be
000003e0: 1d4b cb3d 74e0 9cbe 65e6 0fbe 44c8 a8bd
000003f0: 53a9 9abe 3ca9 7abd 4826 9a3d 3bd0 32be
-0.23237915 -0.15024313 -0.10938623 -0.108111136 -0.12477458 -0.04962397 -0.4552099 -0.08706702
-0.35621667 -0.052803744 -0.1364621 -0.37800312 -0.08951745 -0.39333344 -0.13481341 -0.25865296
-0.16600698 -0.26603913 -0.37203893 -0.20864262 -0.17583299 -0.091480225 -0.21082342 -0.10244071
-0.06688933 -0.20356393 -0.22974077 -0.015885303 -0.44382727 0.062423564 -0.040135555 -0.034487315
-0.1520426 -0.20325758 -0.24970494 -0.115398735 -0.17127158 -0.1970257 -0.119057156 -0.34810945
-0.1214468 -0.23310308 -0.07063768 -0.2227246 0.013580692 -0.06552461 -0.1783004 -0.11309246
-0.15512653 -0.30770856 -0.4606607 -0.18292603 0.0999524 -0.104159385 -0.31430578 -0.31015834
0.020331617 -0.14214292 0.07900807 0.01343711 -0.019561399 -0.22405614 -0.2031686 -0.3249054
-0.18060765 -0.28225085 -0.47618034 -0.09570716 -0.17356989 -0.07941266 -0.24887055 -0.07832068
-0.12273228 -0.17455837 -0.31149712 -0.05439517 -0.2943548 -0.16855356 -0.16272992 -0.52290094
-0.09401937 -0.14339367 -0.3270835 -0.2679287 -0.278955 -0.11672031 -0.2453907 -0.09442491
-0.12914458 -0.16196594 -0.011544454 -0.3542145 -0.049497254 -0.043173578 0.009265181 0.0063080336
-0.2707449 -0.30834758 -0.20307627 -0.24328546 -0.27078575 -0.19804913 -0.29607075 -0.13023694
-0.08048657 -0.21220899 -0.10314913 -0.35991448 -0.2391391 -0.34548226 -0.092205055 -0.17293034
-0.074543476 -0.39009577 -0.125919 -0.037566483 -0.07224076 -0.19702622 -0.28385472 -0.24557076
-0.19024259 -0.33697206 0.11498363 -0.42312002 -0.14004521 -0.08922425 -0.37010777 -0.086845845
-0.31606674 0.09483886 -0.24850729 -0.14268798 -0.12680636 -0.15539266 -0.057014003 -0.022241931
-0.37374216 -0.14828151 -0.34340233 -0.1781458 -0.37161297 -0.4121483 -0.066978425 -0.20035836
-0.09471392 -0.1789523 -0.2491867 -0.38630733 -0.3541967 -0.15262462 -0.06254967 -0.16162966
-0.15075283 0.107452534 -0.11827313 -0.09561647 -0.22593057 0.15058902 -0.3727571 -0.27425283
-0.114643455 -0.29216298 -0.07751922 -0.46366674 -0.034881398 -0.042914666 -0.44891602 -0.49369112
-0.13249347 -0.4780757 -0.35459888 -0.045658007 -0.19333602 -0.20746645 -0.17386232 0.04898955
0.02987227 0.027794236 -0.12711604 -0.3695973 -0.085663326 0.07362775 -0.50741315 -0.20207243
-0.098593876 -0.10535469 -0.3308306 -0.15896489 -0.24950121 -0.12729199 -0.15993564 0.028362237
-0.05561743 -0.1253124 -0.18481538 0.09135563 -0.12745781 0.0062520746 0.101442374 -0.22500823
-0.2502072 -0.3757995 -0.13515297 -0.36068428 -0.23956122 -0.04127428 -0.15308222 -0.21376099
-0.27191347 -0.043337647 0.016148712 0.018671716 -0.04876718 -0.12589373 -0.28970274 -0.16722785
-0.31160155 -0.35401708 -0.106054716 -0.17434488 -0.24021669 -0.05775986 -0.20424145 -0.06584034
-0.27856752 -0.18011206 -0.34078255 -0.060820647 -0.50263053 -0.22788215 -0.11663092 0.18138391
-0.3968994 -0.14352201 -0.37034297 -0.13075851 -0.032939687 -0.26687837 -0.38580075 0.014078818
-0.22951797 -0.23444682 -0.20042728 -0.20731416 -0.30307302 -0.12385019 -0.23315488 -0.16456783
0.09926436 -0.30639994 -0.14052732 -0.08241323 -0.3020731 -0.06119655 0.07526833 -0.17462246

fc2.weight f4 [256, 516]
00000000: cb77 a6bd cafe 973c c02e bebd 68df 8ebd
00000010: e3fe 873d 498b c8bd 7f2b fd3c 6df6 3bbe
00000020: 24ca 9dbc a24c 8ebd 8c42 1fbe 9728 2cbe
00000030: 5119 65bd 559e a5bd 0518 9cbd 0728 01bd
00000040: 3a94 8a3c fc00 1a3d 9d09 0abd 893b 24bd
00000050: 5cd5 e7bb e3f9 38bd 361e dabd cd9a 3cbe
00000060: c3aa 1ebe 136e 16be 7356 1bbd d9f1 8fbc
00000070: b133 c1bc ac45 e7bb e28f b23d 76a6 28bd
00000080: e134 26bc 18fc c53d e5ee b5bd 9fcf edbd
00000090: 663f dbbb 0d49 69bd 46e2 ccbd 4e7e 963d
000000a0: c2a0 adbd 48f4 1abe c1d2 11be 155a 1b3d
000000b0: 7542 99bc 1451 aebd b32d 89bc 2953 adbd
000000c0: c008 223d c476 9e3d 023d 8dbc 3097 e8bb
000000d0: 070a 08bd 5155 98bc b6d8 19bd 88cd 40bc
000000e0: 1efd d3bd 0f60 18bb 65a8 abbc 0734 3ebd
000000f0: bbe2 a2bd 07d8 663d 2eca 2d3d 2717 d13c
00000100: bf55 92bd 794f 9ebd ce10 24bd 09ce 9c3b
00000110: 9abc 10bd 9af4 133c e6b5 f1bc 8215 cd3c
00000120: e848 80bd f39e fabd 00c0 d0bd 329b abbd
00000130: da8c 993c 92ba 683d 8a59 18be 618b f53c
00000140: ea5f 1cbe 8b3c 403d bc22 733c efca 5c3c
00000150: 79d0 7f3b 3d31 923c 40c5 9f3c 25c3 9d3c
00000160: eae8 5c3c 7487 79bd 2c7b 3ebd 84af a5bd
00000170: 8ce7 793d 2a17 4bbd 535a 693b 01df 0bbc
00000180: 1536 cfbd 0674 98bc 58b1 92bc 3d6e 55be
00000190: 5b53 5ebd b98d 97bd 5f90 d8bc f37b 8dbd
000001a0: 9e4b 35be 8136 2ebd 0952 e53d 927a c6bd
000001b0: a7b8 783c 3cc1 bfbd 3087 16be aa82 61bd
000001c0: 90be d8bd 7e65 64bc ced6 6b3d adeb 8c3c
000001d0: 826e ba3c f5c1 9ebd fd59 46be 9260 b5bd
000001e0: ce1a e1bd 7fb7 83bd e002 4cbd 359b 82b8
000001f0: bcf3 a2bd 9478 e7bd 4d2a cb3b f65e e7bc
00000200: 7aea 70bc 31d6 aebd 9fcf 633d b688 db3b
00000210: f9b7 c5bc 7191 85bd 9a29 a3bd 073c 033d
00000220: 26d5 3ebd 2070 0b3c 1c3c 39bd a9b7 29be
00000230: 6c36 57be 79bc b73c c228 523c e520 09be
00000240: 5feb bcbd 53df cd3c ab53 b83d 3e44 80bd
00000250: f639 93bb a03b 553c dbf3 74bd d927 7d3d
00000260: 99c3 acbd 9e21 11be 39f9 053c 4e53 d13c
00000270: 240e 123c e7d2 e9bd 4820 02bd ebe0 083c
00000280: 92c4 5ebd 35d2 bbba f528 05bd 1732 ecbd
00000290: 521d 2cbd 1d06 9cbd 2f33 97bc 4c33 853c
000002a0: c021 adbc 558f 0bbe bf2e 0b3a 8497 b4bd
000002b0: 7107 1abe d749 92bd 733b 713d 2c73 17be
000002c0: 3804 d2bd 29e6 b0be aaa1 84bd ab52 da3c
000002d0: 9b4e b03c e486 723d a662 39be 9b9d 6fbd
000002e0: 806f 5abd 15db 08bd 6334 c3bc 81f4 acbc
000002f0: 6b4e be3d eeb4 3b3c a409 41bd 0fcf 2d3d
00000300: de6d 18bd 614b fcbc 3115 87bd 1a74 4ebd
00000310: 90b9 1f3d ec56 8c3d d47e 4ebe 8a2b 80be
00000320: 5d5d d4bd 648f 2fbe b8e6 21be 4593 aebd
00000330: d90c 27bd f04c 78bd ca74 a9bd f141 0bbd
00000340: 0582 803c 197d 29be b28a bebd 1a7b 81bc
00000350: 5ef2 f83c 03d7 e5bd 1d2e 46bd ba0c 5ebd
00000360: 3ae1 6bbd 4cc0 1bbe a8b1 9fbd 3a80 613c
00000370: 56ee f7bc 7125 74bd c24d 8c3d 08bd d3bd
00000380: 7b44 8ebd 77bc 02bd bba2 04bd 3c4a b8bd
00000390: 4a89 19be 4344 a33c 02c4 74bc 796d c0bc
000003a0: 5a18 46be 5953 26be 6391 02bd 5fb4 4b3d
000003b0: dcac f13c 3fc3 0fbd df52 953c 85ba b7bd
000003c0: 01d5 84bd 999c 0abd 4dd7 06be df8c a2bd
000003d0: 462c ef3c a0ab babb b576 54bd 46c0 a33d
000003e0: 3d3f a5bd 6495 35bd 971d 073d d6f6 a8bd
000003f0: a213 f4bd 0694 9cbd 53b8 0e3d 0296 68be
-0.081283174 0.01855411 -0.092862606 -0.06976205 0.06640413 -0.097921915 0.03090453 -0.18355723
-0.019261427 -0.0694821 -0.1555273 -0.16812359 -0.055932347 -0.0808684 -0.07621769 -0.031532314
0.016916383 0.037598595 -0.033700574 -0.04009584 -0.007074995 -0.045160186 -0.106502935 -0.18418427
-0.15494828 -0.14690427 -0.03792424 -0.017571377 -0.023584219 -0.007057866 0.0871885 -0.041174375
-0.010144443 0.09667224 -0.08883456 -0.11611866 -0.0066909073 -0.056954432 -0.10004096 0.073483095
-0.08477928 -0.15132248 -0.14240552 0.037927706 -0.018708447 -0.08511558 -0.016745424 -0.08463127
0.039559126 0.077374965 -0.017241005 -0.007098101 -0.033212688 -0.01859537 -0.037560187 -0.0117677525
-0.10351013 -0.0023250615 -0.02095432 -0.046436336 -0.07953402 0.056358363 0.04242914 0.025523735
-0.07145261 -0.07730002 -0.04005509 0.0047853035 -0.035336114 0.0090304855 -0.029505681 0.02503467
-0.06263906 -0.122373484 -0.10192871 -0.083792105 0.018743921 0.056818552 -0.14877906 0.029973688
-0.15270963 0.04693274 0.014839824 0.0134761175 0.0039034171 0.017845744 0.019503236 0.019258091
0.013483265 -0.060920194 -0.046504185 -0.080901176 0.061011836 -0.049582638 0.0035606816 -0.008537055
-0.10117737 -0.018610012 -0.01790683 -0.20842834 -0.054278713 -0.07400078 -0.026436029 -0.06908407
-0.17704627 -0.042532448 0.111972876 -0.09691347 0.015180743 -0.093630284 -0.14700007 -0.05505625
-0.10583222 -0.013940213 0.0575779 0.017202223 0.022757772 -0.07751838 -0.19370265 -0.0885631
-0.10991441 -0.064314835 -0.04980743 -6.2277926e-05 -0.07956645 -0.11302295 0.006200111 -0.028243523
-0.014704341 -0.085369475 0.055617925 0.006699647 -0.024135577 -0.06521881 -0.07966919 0.03203967
-0.046589993 0.008510619 -0.04522334 -0.16573967 -0.21016854 0.022428738 0.0128271 -0.13391455
-0.09224581 0.025130903 0.090003334 -0.06263016 -0.0044929935 0.013014704 -0.05980287 0.06180558
-0.08435745 -0.1417298 0.008177095 0.025552418 0.008914504 -0.114171796 -0.031769067 0.008354406
-0.054386683 -0.0014329614 -0.032509763 -0.115329914 -0.04202015 -0.076183535 -0.018457023 0.016259812
-0.021134257 -0.13628896 0.0005309395 -0.08817962 -0.15041901 -0.0714299 0.058894586 -0.14790028
-0.10254711 -0.34550598 -0.064761475 0.026650747 0.021521857 0.059210673 -0.18104038 -0.058499914
-0.05332899 -0.033412058 -0.02382869 -0.021112682 0.09292301 0.011456711 -0.047128335 0.042433795
-0.037214153 -0.030797662 -0.06595839 -0.05040369 0.038995326 0.068525165 -0.20165569 -0.25033218
-0.1036937 -0.17144543 -0.15810668 -0.08524183 -0.040783737 -0.06062025 -0.08274229 -0.033998434
0.015686998 -0.16551627 -0.09303798 -0.01580577 0.030389007 -0.11222651 -0.04838382 -0.054211356
-0.05758784 -0.15210074 -0.07797557 0.013763482 -0.030265015 -0.05960602 0.068507686 -0.10338789
-0.06946655 -0.031918015 -0.032381754 -0.08998534 -0.14993778 0.01993001 -0.01493931 -0.0234897
-0.19345227 -0.16242732 -0.031876933 0.049732562 0.029501371 -0.03509831 0.018227993 -0.08971123
-0.0648594 -0.03384075 -0.13168068 -0.07937025 0.029195916 -0.005696729 -0.05187102 0.079956576
-0.08068702 -0.044331923 0.032987203 -0.08250205 -0.11917807 -0.07645421 0.034843754 -0.22713473

fc2.bias f4 [256]
00000000: 0cea 0ebc 90ef 58be 3c1b fabd 40bc 423d
00000010: d529 7a3c 22e0 40bc 605e 9bbd 69c6 9c3d
00000020: 83b7 b53d 088e 15be 7560 a7bc 09c5 8f3e
00000030: 3a70 913d 8f87 513e 82fe 76bd b359 fa3b
00000040: 377c e2bd 4bc7 a5bc dcc5 073c 4732 47bc
00000050: 2e77 13bd 3f77 91bc bbb7 bc3a fbb9 acbc
00000060: 737f 8c3e e5e0 1cbc 1777 e3ba 8948 24bd
00000070: b0b1 66bd c8c8 2cbe 9c00 8d3d 1f78 8ebd
00000080: 2d9d dc3d c204 4f3c 9f2d 21bd be14 83bd
00000090: b277 25be 1517 9b3c e183 9a3c dae6 303b
000000a0: b6af 0cbb 900a d6bc 0a94 6c3e ea04 60bd
000000b0: 5460 f73e d250 163e 36d6 203e a7d8 c73d
000000c0: 3df9 cf3d 6ed9 a63d 88ba 92bd 9217 1bbe
000000d0: 63a1 ddb4 36ea a3bc 7358 273e 3f82 7c3a
000000e0: abe6 4abb fe4a 5abd e410 83bd a019 58bd
000000f0: 5b2c c33e 5a42 06be 6cf8 94bc 9e0b 05bd
00000100: aaa7 72bd 7a6e 51bc d511 84bc f628 b73d
00000110: 352b 0ebe 876d aa3d 61fa 22bd 63d0 013e
00000120: 93d1 153e 0feb 963e 1330 f23d a16f 33bd
00000130: f317 a3bd 6347 123c abbd 8cbb 98c2 113e
00000140: 2ce8 803e eb29 7abd 2ae0 c0bd 72d1 f0bd
00000150: 44f2 fc3d 2692 7f3d b577 4c3e 3b1a 82bc
00000160: 0c4f 47bc 00ba 8fbc 0b1a 113e 4398 163e
00000170: 45fd 88bd c9bd 97bd 65ef 2abc 45eb 1bbd
00000180: a272 6f3e 10c4 d0bd 00a3 42bc e6af 57bd
00000190: 76d3 e7bc 6130 a3bd db72 fdbd bf83 1ebe
000001a0: d6af d13d b9bd 8dbd 1309 6abd da10 f1bc
000001b0: aee0 8c3d 867e b2bc d2ff 4bbd 6422 823c
000001c0: 58a5 f53e 9342 c3bc 6296 d8bd 432f 653e
000001d0: d804 97bd be03 b9bd a30c c8bc f3ce 183e
000001e0: 0724 9f3e 611c 97bd 0726 dfbc 04ac b33c
000001f0: 640f bfbc 4b42 713e 75c4 82bb b22e adbd
00000200: c37e 37bd 1ad2 92bd 7c12 61bc 4f4f 9fbd
00000210: 9b6d 03bc f9a2 043e ca8a e5bd 329c 03bd
00000220: e66d 69bd 9e7d 6abb 9a46 5c3e f5ba 2dbd
00000230: cd01 4c3e 1eee 9ebd 9320 a23e 3b09 d3bc
00000240: 5080 4a3c b04d 37bd d17a 323e 2c57 56bd
00000250: 319e 75bd bc27 9dbc 80be 393e 64f9 97bc
00000260: d0c3 0d3e c8de d43d cc9c 0bbe bc44 5f3e
00000270: f3fa ba3d 6dc2 aebd 8273 f1bc 059f 103c
00000280: 3198 1fbd 23a1 6c3e 6675 80bc fefa 99bd
00000290: 7d74 273e d620 823b 6a2c 77bc 46a7 2b3e
000002a0: 3680 95bd d999 b23d 80fd f5ba c146 5abc
000002b0: 5889 653e c570 cc3d 003d b0bc 949e 0ebd
000002c0: d21f d33d bd27 3a3c ce95 acbd fa7d c13b
000002d0: 19aa 52bd 4adf 3abd 9a5c 14bc 4bea 02bd
000002e0: d118 58bd de18 9fbd c56b 123e bc5e 9abd
000002f0: 970b a1bb 9080 16be f20c 46bd 0a98 313e
00000300: 98d7 993e 0658 373d 3dfa 40bd 33ad 2a3e
00000310: 0b0e dcbd aa90 82bd f21f 01bd 65d2 4dbd
00000320: 1736 c63d 7107 a7bc 7a4d 183e 5410 82bd
00000330: ccb2 a13d cff5 24bd c37e b43d f485 0a3c
00000340: ed7f 89bd 9b32 99bc 937a 84bd 99b5 72bb
00000350: 19b4 6f3e 49bb 4cbc efc7 2bbd d7ea 31bd
00000360: 6fe0 9fbd cff8 7cbe ff9f 773e 0faa a33e
00000370: 7a62 87bd cec3 00bd 0d56 313b 6fca 8dbd
00000380: e1ad 793d 2e5c b2bd 5eb8 79bd 0eab 20be
00000390: 35b0 6cbe 51cb 62bc 7363 993d b7c7 1ebd
000003a0: d3f2 3f3c d882 2a3e 29c5 95bd 417b 893e
000003b0: 9d66 49bd 801a 823e 7113 65bd ec21 e13d
000003c0: bf9b 123e 1587 ed3d b92c f2bc ec58 3e3e
000003d0: af6d 2c3e b813 41bb 585e 033f 9c31 1abd
000003e0: 1a8a a1bd 587e e73e af95 a2bd 330a 433d
000003f0: 0731 883c 35da 2e3b a63c dc3d 7888 f33c
-0.008722793 -0.21185136 -0.12212226 0.04754281 0.015268763 -0.011772187 -0.0758636 0.07655031
0.08872893 -0.14604962 -0.020431736 0.28080013 0.07101484 0.20461868 -0.06030131 0.0076400875
-0.11058848 -0.020236632 0.008286919 -0.012157983 -0.03600233 -0.017757056 0.0014398018 -0.021084776
0.27440986 -0.009575103 -0.0017354217 -0.040108237 -0.0563218 -0.16873467 0.06884882 -0.06956505
0.107721664 0.012635412 -0.03935015 -0.06400441 -0.16158941 0.018931905 0.018861713 0.0026993067
-0.0021467037 -0.026128083 0.23103347 -0.054692186 0.4831568 0.14679268 0.15706715 0.0975812
0.1015496 0.0814694 -0.07164484 -0.1514571 -4.1281882e-07 -0.020009141 0.16342334 0.0009632445
-0.0030960243 -0.053294174 -0.06399706 -0.052758813 0.38119778 -0.13111249 -0.018184863 -0.032481782
-0.05924193 -0.012782687 -0.016121784 0.089433596 -0.1388367 0.08321672 -0.03978956 0.1267715
0.14630727 0.2947621 0.11825576 -0.04380763 -0.07963552 0.008928153 -0.004295071 0.14234388
0.25177133 -0.061075132 -0.09417756 -0.117586985 0.12350896 0.062395237 0.1996754 -0.015881648
-0.012164842 -0.017544746 0.14170091 0.1470652 -0.06688932 -0.074092455 -0.010433053 -0.038066167
0.23383573 -0.10193646 -0.011879683 -0.052657984 -0.028299075 -0.07968212 -0.123754226 -0.15479945
0.10238616 -0.06920952 -0.05713756 -0.02942698 0.06878792 -0.021788847 -0.049804516 0.01588554
0.4797771 -0.023835456 -0.10575558 0.2238131 -0.07373971 -0.09033917 -0.024420088 0.14922695
0.31082174 -0.0737846 -0.027239813 0.02193261 -0.023322769 0.23560445 -0.0039907047 -0.08456172
-0.044798624 -0.0716898 -0.013737317 -0.07778799 -0.008021737 0.12952794 -0.112081125 -0.03213138
-0.056989573 -0.003578044 0.21511307 -0.042414624 0.19922562 -0.07760261 0.31665477 -0.025761237
0.012359694 -0.044751823 0.17429663 -0.052329227 -0.059965316 -0.019183986 0.18139076 -0.018551536
0.13844228 0.10394055 -0.13634032 0.21803564 0.09129896 -0.085331775 -0.029474024 0.008826976
-0.0389635 0.23108344 -0.01568098 -0.07518576 0.1635303 0.0039711995 -0.015086273 0.16763029
-0.07299845 0.0872075 -0.0018767565 -0.013322533 0.22415674 0.099824466 -0.021513462 -0.0348192
0.103088036 0.011362013 -0.084270105 0.00590491 -0.05143175 -0.0456231 -0.009055281 -0.03196172
-0.05275804 -0.07768415 0.14298923 -0.075376004 -0.0049147117 -0.1469748 -0.04835219 0.17343155
0.30047297 0.04476168 -0.047113646 0.16667633 -0.10744866 -0.06375249 -0.031524606 -0.050249476
0.096782856 -0.02038929 0.14873305 -0.063507706 0.07895431 -0.040273484 0.088132404 0.0084547885
-0.06713853 -0.018700888 -0.06468692 -0.003703451 0.23408546 -0.012495824 -0.04193872 -0.04343685
-0.07806479 -0.24704288 0.24182127 0.31965682 -0.0661058 -0.031436734 0.0027059347 -0.06923377
0.06095684 -0.08708988 -0.060966842 -0.15690252 -0.23114093 -0.01384242 0.074896716 -0.03876468
0.011715609 0.16651475 -0.07312996 0.26851848 -0.049170125 0.25410843 -0.055926744 0.10992798
0.14317225 0.115980305 -0.029562341 0.18588609 0.16838716 -0.0029461216 0.5131583 -0.037644967
-0.07887669 0.4521358 -0.07938706 0.04761715 0.01662494 0.0026680354 0.10753755 0.02972816

fc3.weight f4 [1, 256]
00000000: 73f3 993d a152 05bd dadc 87be 6354 413d
00000010: 3b9b 0c3c 7f50 7f3c 7cb9 53be dac7 d43d
00000020: 58c7 c43c d6f0 99bc eefc a23d 1d57 183d
00000030: cef2 ae3c 5351 623d 8ad8 703b e513 8ab9
00000040: 0f73 00be 073a 3a3c f4eb bbbb 23e7 483b
00000050: b02e a53a e282 373b ef92 8b3b 2e1b 133b
00000060: d75a 663d 7253 c2bb d934 003c 95eb b2bb
00000070: 33e8 bf3a e7bc 13bd d816 cd3c af6b 0cbd
00000080: 00a2 ac3d 8be8 0b3d b35e 36bb 91c5 223b
00000090: 38bb 3dbd b41c 813c ac93 08be e48e 9e3d
000000a0: cb30 4dbb b7df 64ba 89c5 5f3d de94 9e3a
000000b0: 44c1 e53d 3daa 4f3d ed6c 4d3c e44d 5b3d
000000c0: e398 4b3d 8980 bb3c 7285 3cb9 437e 90bd
000000d0: 1cee 033c 167d bdbb 2923 ce3c fcb9 403d
000000e0: 6252 3e3d d57d 92bd f64e 283d 6b96 d8bc
000000f0: 17c5 0c3d a7d3 c6bc 2a26 9c3b cec2 8f3d
00000100: c3e2 7d3b 0945 88bb dda1 f7ba 711f 5c3d
00000110: 5617 85be 3988 463d 46c3 ad3b 1838 123d
00000120: 26b6 0a3d 21dc 6d3d 18e6 493d 2688 14bc
00000130: c47d a93b 54ae 583d 5165 d2bc 7832 f03c
00000140: 88b6 2c3d ec7d fa3b aacb 66bd a5e7 b5bd
00000150: 0493 3c3d d849 e83c 54a2 8c3d 2053 123c
00000160: 3b96 0c3d 6971 aabd 16c0 9d3c 0453 c93c
00000170: 203e 9e39 2dc2 b2bb a84a 093c a8b8 3fbe
00000180: a97b 2b3d c7bc 27bd 6e1c 1c3b 5a9a ff3a
00000190: bedb 0e3d 8090 f4bd 401f 34bd ba93 86bd
000001a0: a701 7d3d 1390 d53b 47f0 663b 1e81 1c3d
000001b0: f7c4 a93c 698c b5bb 8501 0a3c ab5b 093e
000001c0: c999 e73d cb3b e6bb 9aef 16bd 237a 3b3c
000001d0: 6c0c ddbb da67 1dbd a541 513d 42a0 f13c
000001e0: fc93 ae3d 15aa dabd ccbb b83b e593 02ba
000001f0: 054e cebb 15ee b53d e0e4 3aba 5798 15bd
00000200: 877a 963b eaa1 8b3b ec8a eabb f8cd 0fbd
00000210: 080f 91bb a292 213d a23f 89bd 5ab9 a43b
00000220: 7f2c 7cbe 3195 9dbb 795a 293d 9f2b bf3d
00000230: 4051 1e3d 936b c6bb 5f2a 883d 36c6 4c3d
00000240: e38c eb3c 2045 1a39 4ee1 a03d 4fca a13d
00000250: 6734 1d3c dda2 c9bd 9a56 313d 8b82 eabd
00000260: 6405 123d ee56 f03c 2a69 6dbc 0773 833c
00000270: 87fc b93d aaec 0abe ab63 7f3d ead2 c13b
00000280: db2b 6ebc 94fa e43c 744e a8bd 4737 9bbd
00000290: b8eb f73c 5ebb 5d3b b623 eeb9 124a 453d
000002a0: 6a35 e8bd 0500 cf3c 6b48 89be 11da d1bb
000002b0: 06d2 193d cf70 483d 655f 4b3d 2e6f 113a
000002c0: cb99 a03c 7555 f4ba b313 5c3b 71e3 cf3d
000002d0: 149f b2bd 642c 3ebe 7d05 293e 77e3 36be
000002e0: e5e0 0c3c 7bac 89bd 728c bb3c aa61 643b
000002f0: 096a adb9 a52f 0fbe d6a2 d53b 4a72 263d
00000300: 6997 ca3d be3b 7a3d 155e 893c edba e43c
00000310: bc46 7dbd 407b 3cbc aaa4 d3bb c0e2 ae3a
00000320: 98be b53c 08ed 723d 9b6b 533d c8e0 debb
00000330: 2e05 1f3d 8123 80bb f303 a83c 2ce7 3e3b
00000340: dffc 92bd e78b 333a bec1 e7bb 470c ddbb
00000350: a509 e13c 54b2 ba3b 579a 0abd 07ee 8ebc
00000360: 526e ccba 11fe 77bd c76f 243d 0a5d d03c
00000370: b601 30be 8ece d23a 6868 c1bb 3684 a6bc
00000380: 002c 653d 8d90 1ebe e8e2 c13a dae6 f1bd
00000390: ac70 44be 0ea7 283e 4029 933d 012b 92bd
000003a0: 6266 413c a6e8 a33d ed7f ab3d fb7e d53d
000003b0: 47cf 283b 344b 923d 8c5b 84bb 7579 573d
000003c0: ae02 d13c 0a2b 3c3d 0b21 bdbd e3fc 2d3d
000003d0: e709 143d 1e66 86be dd56 d63d be9b ddbb
000003e0: 15f9 8b3b 7822 043e f9ba 25bb 80bb bf3c
000003f0: 741b 063c d768 4a3c 527f 1e3d 2185 693a
0.075171374 -0.032549504 -0.26535684 0.047199618 0.008581932 0.015583157 -0.20676225 0.10389681
0.024020836 -0.018791597 0.07958399 0.037192453 0.021356013 0.055253338 0.003675016 -0.00026336234
-0.12543891 0.011366374 -0.005734915 0.0030655346 0.0012602415 0.0028001596 0.004259459 0.002244662
0.056238975 -0.0059303576 0.0078251 -0.0054602125 0.0014641344 -0.036068823 0.025035307 -0.034282383
0.084293365 0.034157317 -0.0027827441 0.0024836997 -0.046321124 0.015760757 -0.13337582 0.07742098
-0.00313096 -0.0008730846 0.054631744 0.0012098809 0.11218503 0.05069946 0.012538177 0.05354108
0.04970635 0.022888439 -0.0001797879 -0.070553325 0.008052375 -0.0057827337 0.02516325 0.04705237
0.046465285 -0.07152907 0.041090928 -0.026438912 0.034367647 -0.024270846 0.0047652917 0.07019578
0.0038739897 -0.0041586203 -0.0018892844 0.053740922 -0.25994366 0.048469756 0.0053028194 0.035698026
0.033865117 0.05807126 0.0492917 -0.009065663 0.005172463 0.052900627 -0.025683077 0.02932094
0.042166263 0.0076444056 -0.056346573 -0.08882073 0.046038643 0.028355524 0.06866899 0.008930951
0.03432296 -0.083224125 0.019256633 0.024575718 0.00030182395 -0.0054552765 0.008379616 -0.18722785
0.04186598 -0.040951516 0.0023820656 0.0019500956 0.03487753 -0.11941624 -0.043975115 -0.06571145
0.061769154 0.006517419 0.0035238431 0.038209073 0.020723803 -0.00554042 0.008423214 0.13413875
0.11308629 -0.007026171 -0.036849596 0.011442694 -0.0067458656 -0.03842912 0.051087994 0.029495362
0.085243195 -0.10676972 0.0056376215 -0.00049811444 -0.0062959217 0.08883301 -0.0007129442 -0.036522236
0.004592243 0.004261245 -0.007157674 -0.035108536 -0.0044268407 0.03944648 -0.0670159 0.0050269784
-0.24626349 -0.004809045 0.041346047 0.09334492 0.038651705 -0.0060553043 0.06648707 0.049993716
0.028753703 0.00014712336 0.078554735 0.078999154 0.009595013 -0.09845517 0.04329548 -0.1145068
0.035649672 0.029338326 -0.014490405 0.01604606 0.09081369 -0.13566843 0.06235091 0.0059150355
-0.014536823 0.027951516 -0.08218089 -0.07578903 0.030263767 0.0033833603 -0.00045421504 0.048166342
-0.11338313 0.025268564 -0.26813063 -0.0064041694 0.03755381 0.048935708 0.049651522 0.0005547878
0.019604584 -0.0018641191 0.0033581078 0.10150803 -0.08721748 -0.18571621 0.16506 -0.17860208
0.008598541 -0.06722351 0.022894118 0.0034848251 -0.00033076134 -0.13983019 0.0065196557 0.04063634
0.098921604 0.06109213 0.016768495 0.027921164 -0.061835036 -0.011503994 -0.0064588385 0.0013342723
0.022185609 0.059308082 0.051616292 -0.0068016984 0.0388233 -0.0039104824 0.020509696 0.0029129488
-0.071771376 0.0006849155 -0.0070726564 -0.0067458483 0.02747042 0.005697528 -0.033838596 -0.017447485
-0.0015596843 -0.06054503 0.04014566 0.02543499 -0.17188153 0.0016083287 -0.005902339 -0.020326715
0.055950165 -0.15484829 0.0014792355 -0.118116096 -0.19183606 0.16469976 0.07185602 -0.071371086
0.011804195 0.080033585 0.08374009 0.1042461 0.0025758313 0.0714325 -0.0040392336 0.052606065
0.025513973 0.045939483 -0.09234818 0.0424775 0.036142256 -0.26249784 0.104657866 -0.0067629507
0.0042716363 0.12903774 -0.0025288446 0.023404837 0.008185256 0.012354097 0.03869564 0.00089080824
