p2_continous_control/model/p2_ddpg_actor.pth (torch_old, 600063 bytes, 6 tensors)

fc1.weight f4 [512, 33]
00000000: c280 46bc e437 9e3d fada 47bd f610 203d
00000010: 3e5a 5a3d 4957 963d 0671 0fbe 0098 df3c
00000020: bce9 1cbe 530c 1a3c 9e8d 9abc 6526 353d
00000030: 44e7 8c3d d654 6dbc 3155 833b 3824 083e
00000040: 804f babd 0868 c23c 16f7 f23d 2501 77bd
00000050: f8a5 4a3c ff76 e53d c9f8 5ebc fc34 d73d
00000060: c906 abbd d532 103e eaf4 72bd d067 c53c
00000070: e5bf fc3d 3524 313d f048 0ebd 208a a8ba
00000080: 4124 8a3e 8350 a7bb 54b9 ccbd 2ce0 c53d
00000090: b047 2a3d 9bca 60bc 6274 68bd c07b b03b
000000a0: f16b 853b 5e63 9b3d b3fd 89bd f1fd eabc
000000b0: e6a2 4abd fc6b ab3d e5ab 363d 3968 8c3c
000000c0: 6276 793d e01e 223d fe32 e33c 332c 183d
000000d0: 6649 ed3c 4849 debd b06b 6a3b 40ee 36bd
000000e0: 9e21 a23d 60cf 42bd 1341 b53d cefc 80be
000000f0: d647 d83d 9695 923c 31d7 1dbd 0f1d 27be
00000100: e04c 063b 16e9 8bbe 0bac 53bd e0b3 b0bb
00000110: 23e0 adbd 4a1a 573c 243c 7dbd 37e4 80bc
00000120: 00f6 00be 9368 a7bd 19ac 9f3c b17f dbbc
00000130: 485f 8f3d 3b90 93bd 9c84 a0bb 206e d03d
00000140: 4dd0 423c b141 923d f4d4 81bd 9abf bc3d
00000150: 0567 0ebd 1a1c cdbc e991 9abd 9fa2 883c
00000160: b7ee b93c dff2 163e f52d 4f3b 07ae 69bd
00000170: 66ac 2bbc 3392 343d f843 b53d 7a53 1abd
00000180: b74c d6bd 3023 0d3c 5bb8 7cbe 10b7 f33d
00000190: 8646 25bd b7d9 6c3d 8eb7 f73b eac0 03bd
000001a0: 27b5 833d ebea 3f3d 5e4d 87bc bb30 fd3d
000001b0: b616 023d 2bd6 8d3d c5de 013e 45a7 d4bd
000001c0: e07e d3bd c427 44bd 9636 90bd 5b66 87bd
000001d0: e7ee 13ba 172a 2cbd e5f8 d33c 9505 2dbd
000001e0: bdc2 29bc c691 07be f247 91bd 728d 1dbc
000001f0: ad1f aabc f035 d43d 937c 2a3c 7f20 823d
00000200: 4a57 c7bc c6d7 203c 786e aabb a161 99bd
00000210: 4089 6f3d 6325 773e c305 1abd 66a3 b4bd
00000220: 7ea1 583d c9dd 013d 5024 5dbd cbbf 93bd
00000230: 2e53 38bd c53f 55bd eba7 9ebc f7d7 8d3d
00000240: 0f9e 19bd f705 1f3e 535c e63c 9d6a 853d
00000250: 8e7b 063d d7ee 73bd 2883 573d a4bf a23c
00000260: 6c98 aabc 427d 0dbe 72af 0e3d 1a67 4cbd
00000270: 240c 18bc 599e 7d3d 8dbb 09be a27c e33d
00000280: 10ff 81bd 540e 7a3c d285 d8bd 1ce0 34bd
00000290: 7bc5 cc3e 5f8a 45bc 4a03 eebc 913e 91bd
000002a0: 0696 c73c 9591 46bc cd87 77bd 42b8 a5bc
000002b0: fc33 943c 5826 b23d 95d7 823d 5fd8 533d
000002c0: 21b5 53bc d9e1 8fbb 9fff 023c 0a99 a13c
000002d0: bec6 6f3d 483d 963c 6eb7 5bbd 14cf 25bb
000002e0: aad6 d1bc b033 f2bd e845 8f3e 974d a93d
000002f0: c2f3 c5bc 7510 e73d 4b2c 27bd da53 c83c
00000300: 0858 5cbc cbec 59bc 0cfb 393c 4b00 fbbc
00000310: a0ce 353c 52bd ce3e 7987 edbc 9377 0ebd
00000320: fc73 8c3d e9f0 243b 1355 073d f4b8 d3ba
00000330: 5ca1 d8bc 1e13 29bc e358 acbc 707e a53c
00000340: e169 4b3d a2df 64bd cad7 31bd 692a 7b3d
00000350: 4322 87bd 3136 48bd 971c cebb ff3e c8bc
00000360: 87d4 183d 4f7e 4c3d ac67 843c 55e4 f3bc
00000370: fe86 7d3c e6d8 303d 4661 05bd b6a3 cd3c
00000380: f4a1 22bd 18de 81bc 5ba5 99bd 4168 283d
00000390: 91a9 6ebd 716c 133d e113 ee3e 1ba9 8bbc
000003a0: 31f2 333d 78c8 5d3d 9a78 5ebb 9967 a63d
000003b0: ad8f a4bd 3a56 6f3d 740a 603a 9810 813d
000003c0: f191 593d e912 04bd 15a3 6f3d 5827 443d
000003d0: 0263 b6bc e6ac fdbd 68ff 44bd b49a 323b
000003e0: 2f72 c8bc 33aa 1abd 0930 d53c d7f3 c33d
000003f0: 445c d63d aea7 8fbd 39a3 7b3d 5671 a7bc
-0.012115659 0.07725504 -0.048792817 0.039078675 0.053308718 0.07340867 -0.14007959 0.027294159
-0.15323538 0.009402352 -0.018866356 0.04422607 0.06880048 -0.0144855585 0.0040079583 0.13295066
-0.09097195 0.023731247 0.11863534 -0.060303826 0.012368672 0.11204337 -0.01360912 0.10508153
-0.083509035 0.14081891 -0.0593156 0.024097353 0.123412885 0.04324742 -0.034737527 -0.0012858547
0.26980785 -0.0051060333 -0.09996286 0.09661898 0.041572273 -0.01372018 -0.056751616 0.005385846
0.0040717055 0.07587312 -0.067378424 -0.028685542 -0.04947176 0.08370206 0.044597525 0.017139541
0.060903914 0.039580226 0.027734276 0.037151527 0.028965663 -0.10853821 0.0035769753 -0.044660807
0.07916568 -0.04756105 0.088503025 -0.25192875 0.105605766 0.017893594 -0.0385353 -0.16319679
0.0020492598 -0.27326268 -0.051677745 -0.0053925365 -0.08490016 0.013128826 -0.061824933 -0.015733821
-0.12593842 -0.08174243 0.019491242 -0.026794286 0.07000595 -0.07205244 -0.004898621 0.10177255
0.011890483 0.07141436 -0.06339446 0.092162326 -0.034766216 -0.025037814 -0.075473614 0.016679106
0.022696836 0.14741085 0.0031613086 -0.05705073 -0.010478115 0.04408474 0.08850855 -0.037677266
-0.10463851 0.008614346 -0.24679701 0.11900151 -0.04035046 0.057824817 0.007559723 -0.0321664
0.064310364 0.046854895 -0.016516384 0.1236281 0.03175994 0.06925615 0.12682636 -0.10383467
-0.10326934 -0.047889486 -0.070416614 -0.0661132 -0.0005643204 -0.042032328 0.025875518 -0.04224165
-0.010361371 -0.13239202 -0.070938006 -0.009616243 -0.020767057 0.1036185 0.010405677 0.063538544
-0.024333615 0.009817069 -0.005201157 -0.07489324 0.0584805 0.24135356 -0.03760315 -0.08820228
0.052888386 0.03170565 -0.05398971 -0.07214316 -0.0450012 -0.05206277 -0.019367179 0.06925958
-0.037504252 0.15529619 0.028120195 0.065144755 0.032832675 -0.059553947 0.052615315 0.019866772
-0.020824634 -0.13817313 0.034835286 -0.049903013 -0.009280238 0.06191859 -0.13450451 0.11107756
-0.063474774 0.015262205 -0.10572399 -0.04415904 0.39994416 -0.012056916 -0.029054303 -0.07092012
0.024363529 -0.01211967 -0.060432244 -0.020229463 0.018091194 0.0869872 0.06388775 0.05172002
-0.012921602 -0.004390937 0.007995515 0.019726295 0.058539145 0.018339768 -0.05364173 -0.002530043
-0.025615055 -0.11826265 0.27983022 0.08266752 -0.024164084 0.11282436 -0.040813725 0.024454046
-0.013448723 -0.013301085 0.011351358 -0.030639788 0.0110966265 0.40378815 -0.028995262 -0.034782004
0.0685806 0.0025168008 0.033040117 -0.0016153143 -0.02644413 -0.010319499 -0.021038478 0.020201892
0.04966152 -0.055877335 -0.043418683 0.061319742 -0.06598332 -0.048879806 -0.0062900293 -0.024444101
0.037312057 0.049925145 0.016162716 -0.029771963 0.015474079 0.0431756 -0.03256347 0.025102478
-0.03970523 -0.015852973 -0.07502242 0.04111505 -0.05826718 0.03599209 0.4649954 -0.01704841
0.043932144 0.05414626 -0.0033946396 0.081252284 -0.080352165 0.05843184 0.00085464795 0.06301993
0.053117696 -0.032244597 0.058505137 0.047889084 -0.022264007 -0.123864934 -0.048095137 0.0027252855
-0.02446851 -0.03775997 0.026023882 0.09567993 0.10466817 -0.07014404 0.061434958 -0.020439785

fc1.bias f4 [512]
00000000: 1392 6cbd 4702 dabd 9a41 d9bc 19f1 053e
00000010: acef 8abd d859 3a3e 4162 39be 4109 583d
00000020: 665e b3be 5830 1a3e a52a a7bd 9c4c 45bc
00000030: c381 3f3e d754 59be e612 95bc ff8b 9d3d
00000040: 85b5 d0bd ab09 f7bd b161 42be 57c5 ac3a
00000050: a502 b0bc 137f 313e 05fb 29be 58e5 8fbd
00000060: 9d20 3d3e a3f5 4e3d afb3 03be 5545 7abc
00000070: 6feb d1bd 6e5c ed3d 5b8a 003d 813a 303e
00000080: 447e 643e 9a78 07be ef7d 8cbd af02 8f3c
00000090: 8440 f53d 5e84 d5bd 5928 a23d ddac 58be
000000a0: 840c f6bc ae89 b0bd c2fd 573d c97e 213d
000000b0: d7d0 80bd 0a90 2c3d 2547 6c3d 79a5 95bd
000000c0: bbe4 8dbd be0f f9bd d1d0 40be 20f4 1ebe
000000d0: 1fb8 9c3d 6382 013e 649d d9bd 3424 b1be
000000e0: 3d9f d6ba fdd0 3dbc dd86 863e 01ee ebbc
000000f0: 2d2e 7a3d a308 043e 375c 5d3c 0e96 38ba
00000100: 2a51 bfbd 6086 ca3c f6dc f8bd b671 afbd
00000110: ad4d f0bd b953 ac3d 207b 033d bab0 ed3d
00000120: c747 143e e8a5 6fbc c35a d0bd fb46 153d
00000130: ad22 c6bd 9fe5 f63d 8e88 cbbd 1d07 dbbd
00000140: ee87 cbbc 8d7d 71bd 6e08 e2bd 5248 8c3d
00000150: 6697 c7bd cdec 3a3d 9b51 423d 9c52 e13d
00000160: 54fc 06be 5820 db3d 1433 823c 1029 70be
00000170: 3583 e53d 6733 7a3c ec82 a3bd 8e37 1b3e
00000180: 8887 5bbc 7119 2fbe ef33 9c3d a3ea fc3c
00000190: 6c2f 98bd 19cf 653d d5fe 9cbe 9442 eabd
000001a0: 16b8 033e 6cdb babd 5c45 833d 426b 7abe
000001b0: 85fb 02bd 63bb 40bd 9472 a83d 8fbe ab3c
000001c0: 14aa d73d aafa f9bd fbbd b13d 208e 55bd
000001d0: 7a7c b23d ac46 adbc 115c 41bd b0a3 44bd
000001e0: aa5d fc3c 4e95 0bbe b884 e63d 45a4 c2bd
000001f0: 7e8a 4a3d 73b6 783e f006 ebbd b12b 1e3d
00000200: 4333 87bd 2e62 9f3c 1020 02be 0b2c 88bc
00000210: dcab 0a3e d035 c7bd c5b6 29be 31cb d13b
00000220: fa56 cdbd 9dd6 14be 24a6 5ebd 7bfe 34bd
00000230: aad6 1abe be39 f7bd 36f7 19bc 1704 df3d
00000240: 142c e33d 0a0a 54be f48a dabd 069f 01be
00000250: 54ed 9fbe c0a8 4a3e c8cb 033e bcb2 733d
00000260: 38a6 6d3d 88d2 db3d 938a a4bd 55cb 193e
00000270: 6bfa 6abd f94f 2b3e 7b72 2abe 89a0 e8bc
00000280: 2613 43bc 9960 e7bd 0bee 253e 0840 85be
00000290: 2aef a8bb ea7f a63d 4e8c 69be ebfb 7cbe
000002a0: def3 123d b211 9abe c172 32be bc35 323e
000002b0: d343 e43c 0ffc 92bd d912 be3d 5a32 143e
000002c0: b192 8a3c ca75 17be 093c ab3d b72d 43bd
000002d0: edb0 d73d 7f74 953d 98e5 52be 0cc5 69be
000002e0: dbc2 d43d 2e39 babb a3ec e2bd 7463 a4bb
000002f0: 835a a6bd 9792 1e3d 7764 493c 6dd6 05bc
00000300: 7155 713d 0380 8d3c c97b b4bd e4f2 8b3d
00000310: 707a 193d 3ab8 a23d fa95 143e a253 edbc
00000320: bb4b fdbd f237 f2bd 5dba fbbd 983f 6abe
00000330: 382c 8e3d 9c11 c43d 1a08 89bc 8229 a8bb
00000340: fc48 c7bc b8f4 043e c4a0 253e b04f 2a3d
00000350: 5381 c93b dafc f8bd 13f5 383d db53 513d
00000360: 0f7a 89be e011 6fbd eaa9 6dbb 7d80 b2bc
00000370: fbd0 13be 14d9 b4bb bf51 8a3d c51b b2bd
00000380: 7e1b dabd d791 b13d 7cca 65bd 3ce7 ea3d
00000390: 568b a6bd d65b 92be 8f96 df37 4946 933d
000003a0: 0353 0d3b b66b 853d f70d babd 0deb d6bc
000003b0: da52 b23c 8351 39bd fa55 aabe 8a90 a93d
000003c0: 7abd 3abb 43cb 27be 25e6 eabc 57fd 8abb
000003d0: e402 b5bd abb4 e6bb 7fe1 1ebd 2d5f 953c
000003e0: 07eb 09bd 7f26 0dbe 79c9 5dbd c271 ac3d
000003f0: 5e7e 11bd 6cf5 a63d 6411 b63d 9a9f d2bb
-0.057756495 -0.106449656 -0.02652054 0.13080253 -0.06783995 0.18198335 -0.18103887 0.0527432
-0.35032958 0.15057504 -0.08162431 -0.012042191 0.18701844 -0.2122377 -0.018197488 0.07692718
-0.10190872 -0.12062391 -0.18982579 0.001318137 -0.021485636 0.17333631 -0.16599663 -0.07026166
0.18469472 0.050527226 -0.12861513 -0.015275319 -0.102499835 0.11589895 0.031381946 0.17209817
0.22313792 -0.132296 -0.068599574 0.017457334 0.11975196 -0.10425638 0.07917852 -0.21159692
-0.030035265 -0.0862001 0.052732237 0.039427552 -0.06289833 0.042129554 0.057685036 -0.07306952
-0.069283925 -0.12161206 -0.18829657 -0.15522814 0.07652306 0.12647395 -0.10625723 -0.34597933
-0.0016374361 -0.011585471 0.26274768 -0.028800013 0.061079193 0.1289392 0.013510755 -0.0007041403
-0.09341653 0.024722278 -0.1215152 -0.085666105 -0.117335655 0.08414406 0.032099843 0.116059735
0.14480506 -0.0146269575 -0.101735614 0.036444645 -0.09674583 0.120555155 -0.09938155 -0.10694716
-0.02484509 -0.058957625 -0.11036764 0.068497315 -0.09745674 0.045635987 0.047441106 0.110020846
-0.13182193 0.106995285 0.015893497 -0.23453164 0.112066664 0.015271044 -0.07983956 0.15157911
-0.013399012 -0.17099549 0.07627093 0.030873602 -0.0743092 0.056105707 -0.3066317 -0.1143848
0.12863192 -0.09123883 0.064097136 -0.24454978 -0.03197815 -0.047053706 0.08224979 0.020964889
0.10530487 -0.122060135 0.08678814 -0.052137494 0.08715148 -0.021151863 -0.047206942 -0.048007667
0.030806381 -0.13631174 0.11255783 -0.09503988 0.049448483 0.24288349 -0.114759326 0.038615886
-0.06601574 0.019455995 -0.12707543 -0.016622564 0.13542122 -0.09727061 -0.16573627 0.006402396
-0.10026355 -0.14534993 -0.054357663 -0.044188004 -0.1512095 -0.1207156 -0.009397319 0.10889452
0.110923916 -0.20706955 -0.106710345 -0.12658319 -0.31235754 0.19790936 0.12870705 0.059496626
0.058019847 0.10733515 -0.080342434 0.15018971 -0.057367723 0.16729726 -0.16645233 -0.028396862
-0.011906421 -0.112977214 0.16204087 -0.26025414 -0.0051554637 0.081298664 -0.22807428 -0.24705474
0.0358771 -0.30091625 -0.17426588 0.1740331 0.027864372 -0.071769826 0.09280939 0.14472333
0.016915651 -0.14791027 0.0836106 -0.04765102 0.10531793 0.072976105 -0.20595396 -0.22829074
0.10388728 -0.005683086 -0.11080291 -0.0050167385 -0.081227325 0.038714018 0.012292019 -0.008168799
0.058919374 0.017272955 -0.08812673 0.06833437 0.03747028 0.07945295 0.14510337 -0.028970543
-0.1236796 -0.11827077 -0.12291405 -0.22875822 0.06942028 0.09573671 -0.016727496 -0.0051319012
-0.024326794 0.12983978 0.16174608 0.041579902 0.00614945 -0.121576026 0.045155596 0.05110536
-0.26850936 -0.058366656 -0.0036264607 -0.021789784 -0.14435188 -0.005519042 0.06753873 -0.08696703
-0.10649775 0.08670395 -0.056101307 0.11469886 -0.08132045 -0.2858569 2.665378e-05 0.0719114
0.0021564371 0.06514685 -0.09084695 -0.026235128 0.021768022 -0.04524375 -0.3326872 0.08279522
-0.0028494284 -0.16386132 -0.028674195 -0.0042416262 -0.08838442 -0.0070405803 -0.03878927 0.01823386
-0.033671405 -0.13784216 -0.054147217 0.08420135 -0.035520904 0.08152279 0.08890036 -0.0064277174

fc2.weight f4 [256, 512]
00000000: 7c7e ce3c 89a5 99bd 05af 283c 0423 553d
00000010: 800e 1a3c 089e 843b bd05 3ebd d9ba 51bd
00000020: 9462 ec3c 2e9b f1bc 1742 45bd 5195 763d
00000030: 507b 393d 6553 55be c3c8 a83c 028e 56bd
00000040: b041 e33b f6d2 dbbc 6317 3fbd bc85 073d
00000050: b672 11bd 5365 853d eabf 6bbd 1e03 cc3d
00000060: 5647 093e 81bb 68be 8845 2d3d 6178 e03c
00000070: 5743 2dbd 3eb1 abbc 7154 9b3d be63 d33c
00000080: 49c1 80bd 9b90 d93a 2bb6 f23d 7efe 5bbc
00000090: 2e12 803d ddf7 e5bc 1882 d63c 656e 50bd
000000a0: 2a76 fb3c b454 a7bb c923 41bd b8a5 543d
000000b0: 3fd2 11be c0f9 a53c 3ca8 e53c bd46 d73b
000000c0: 03e4 28bc 7b9a b83c 97b6 c33a 5f41 bebd
000000d0: 9df7 8f3d 7878 08be 8db7 893d 91ac 5d3e
000000e0: a62f 92bc 81cd 20be 0847 70be 4e0b c6bd
000000f0: f440 19bd c590 2b3d 99cb 193e a9c9 5c3d
00000100: 46fa d93b d171 2fbe 0466 223c 3765 71be
00000110: c591 0bbc f423 35bd c5ab 94bd aae4 aa3d
00000120: c62c 5b3e 5b7a 9c3d 3077 513b 69ac 4c3d
00000130: 6646 3dbd e5e3 af3d 6911 0c3c efa6 7b3d
00000140: f44a 143e 1b21 21bb ceed 80bb 3452 103e
00000150: 24b9 813d 9b9a 9fbc ed8c e5bd 75be cb3d
00000160: c7a7 283e 1002 ed3c d495 143d 084e 07bd
00000170: b38d b6bb e4cc 113e 8931 cbbb 9c20 a4bd
00000180: fda6 8ebc e95f 4dbd 4976 073d 06b3 0d3d
00000190: 87f2 62bd fe13 11bc b3bf e4bd a439 f1bd
000001a0: 05f1 e7bd 89fe 21bd f8c9 a73d 1385 25be
000001b0: 80d6 cc3d a6e5 44be 8932 55bb 0dd5 3a3d
000001c0: 42a1 323d db55 7e3d 01be 0d3e fca4 99bc
000001d0: cbee 9abd 0491 df3a 4bd4 afbc b456 c4bd
000001e0: 26c2 c43d f3aa d0bd 957c 5fbd b11c 753c
000001f0: 1eb3 0a3e cba5 373d 8d55 ccbb 74ee d13d
00000200: f128 9a3b 6f96 0a3e 1c3f 013c 2596 23bd
00000210: ccef 013e c226 183d f360 48bd 8996 123d
00000220: 0b11 b8bd 74c1 0b3a 8647 1c3e 909a 413e
00000230: d9c3 09bd 40bc 1fbe 2fd9 6c3c 4195 3cbc
00000240: 7b9d ccbd 7ef3 01bc b52a 5a3d 1fe8 91bb
00000250: 0fc0 8fbe 2a8f 723d 8b19 9a3c 9cdc e43d
00000260: 3361 da3d 67c6 d3bc c47a 40be befc a53c
00000270: 3e3b f73c f6f0 153e 3eb2 c5bc 52e6 0cbc
00000280: b620 ad3c e363 673d 130d 433d 2506 293e
00000290: 5c23 58bd 0827 5d3c b967 69be e702 a5bd
000002a0: c10c febc 865a 103e 799f 2b3d 4593 d1bc
000002b0: 06f9 253d ac53 d4ba be8d be3d 7ce5 103d
000002c0: e3da 213e 771f 773d 5249 b1bc 9d13 4bbc
000002d0: eb2b 50bc 5d15 0bbd 626b f4bd 32f7 203e
000002e0: 4683 043e 9e30 953d 25cd 653e eacc 183e
000002f0: 1837 78bd a5df 37bd 8490 073d f2c4 f73c
00000300: 0949 c33d 655e de3d 3a67 6dbd 962e b9bd
00000310: 2f73 e1bd ae6d 753d a3ee 60bd d8c0 efbd
00000320: 0583 1dbe 34f7 03bc 271e 87bc ab8d 803c
00000330: cb5d 07bd dbe9 aa3d 89b3 25bb aee7 cbbd
00000340: e4af e2bc 010f 9a3d abf6 0b3e a660 72bd
00000350: 622c 74bc 2fbe e13d 4347 9d3d 4b22 e5bc
00000360: 4c94 553d a264 e7bb d69c c0bd e702 5f3d
00000370: 7304 213d eab2 613c e34f 7b3d 2500 8f3d
00000380: 624d f13d 2781 c33d 590d c53d 2319 bc3d
00000390: 9d5a b83d 3a3b 52bc d31e d8bd 3b8c 9f3c
000003a0: fcb5 c3bc 9bb4 23be c890 08be 864e c1bc
000003b0: 6c96 88be c8b2 503c fbd5 fb3c f8cb df3d
000003c0: cfdf f93d 922a c53c 4b32 e93d a155 86bd
000003d0: 7d2a 913d 18d9 0c3e d46b 97bd 8c63 663c
000003e0: a9a2 883e 379d 683d e33a 84bd a6bc 5d3d
000003f0: e0b6 63bc e81d cabd 83cd 763d f75f 50bd
0.025206797 -0.075022765 0.010295634 0.052035347 0.009402871 0.004047159 -0.04639219 -0.051203582
0.0288556 -0.02949294 -0.04815873 0.060200993 0.045283616 -0.20832594 0.020603543 -0.052381523
0.006935321 -0.026833992 -0.046653163 0.033086523 -0.035509787 0.06513467 -0.05755607 0.09961532
0.13406119 -0.22727777 0.04230264 0.027401151 -0.04230055 -0.02095854 0.07584465 0.025804397
-0.06286866 0.0016598882 0.11851152 -0.013427375 0.062534675 -0.028072292 0.02618508 -0.05088653
0.030695993 -0.005106533 -0.047153268 0.051915854 -0.14240359 0.020260692 0.028034322 0.006569712
-0.0103082685 0.0225346 0.0014931735 -0.09289812 0.0702965 -0.13327205 0.06724463 0.2164786
-0.017844986 -0.15703394 -0.23464596 -0.09670125 -0.03741546 0.04188611 0.15019073 0.053903256
0.0066521494 -0.17133261 0.009912018 -0.23573767 -0.008518641 -0.04422374 -0.07259325 0.083443955
0.21403798 0.07640525 0.003196191 0.04996911 -0.046209715 0.08588389 0.008549073 0.061438497
0.14481717 -0.0024586383 -0.0039345985 0.14093858 0.06334141 -0.019482901 -0.1120852 0.09948436
0.16470252 0.028931648 0.0362757 -0.0330334 -0.005571091 0.14238316 -0.0062009734 -0.08014032
-0.01741361 -0.050140295 0.03307179 0.03459456 -0.055407073 -0.008854864 -0.11169376 -0.11778572
-0.11325268 -0.039549384 0.08192819 -0.16164045 0.1000185 -0.19228229 -0.0032531342 0.045613337
0.04361082 0.062093597 0.13842012 -0.018755428 -0.075650774 0.0017056768 -0.021463534 -0.0958685
0.096073434 -0.10188856 -0.05456217 0.014960454 0.1354489 0.044835847 -0.0062357844 0.102505594
0.0047045876 0.13533948 0.007888582 -0.03993811 0.12689131 0.037146337 -0.048920583 0.035788093
-0.08987626 0.0005331256 0.15261659 0.18906617 -0.03363404 -0.15599155 0.0144560775 -0.011510194
-0.099909745 -0.007931588 0.053263385 -0.00445272 -0.28076217 0.059218563 0.018811008 0.111748904
0.106630705 -0.025851442 -0.18796831 0.020262118 0.030179616 0.146427 -0.024132844 -0.0085998345
0.021133762 0.056491744 0.04761989 0.1650625 -0.052768096 0.013498075 -0.22793473 -0.08057194
-0.03101194 0.14097032 0.04190013 -0.025582919 0.04052069 -0.0016199253 0.09304379 0.035375103
0.15806155 0.06033274 -0.021641407 -0.012394813 -0.012705783 -0.03395592 -0.11934544 0.15719298
0.12940702 0.072846636 0.22441538 0.14921919 -0.060599416 -0.04489102 0.033096805 0.030245278
0.09535415 0.10857848 -0.057959773 -0.09042089 -0.11008298 0.05991905 -0.05491508 -0.11706704
-0.15382011 -0.008054543 -0.01649387 0.015692553 -0.033048432 0.08345386 -0.0025284013 -0.09956299
-0.027671762 0.07522393 0.13668315 -0.059174202 -0.01490316 0.11022603 0.07679608 -0.027970454
0.05214338 -0.007061557 -0.09404914 0.054446127 0.039310884 0.013775567 0.061355483 0.069824494
0.11782338 0.09546118 0.096216865 0.09184482 0.09001658 -0.0128315035 -0.10552754 0.019476047
-0.023890488 -0.15986864 -0.1333648 -0.023597013 -0.26677263 0.012737937 0.030741682 0.10927576
0.12200891 0.02406815 0.11386546 -0.06559301 0.07088182 0.1375469 -0.073936135 0.01406182
0.266866 0.056790557 -0.06456544 0.054134987 -0.013898581 -0.098689854 0.060254585 -0.05087277

fc2.bias f4 [256]
00000000: 3081 fb3c 557d 4bbd ae48 e9bb 585b e93c
00000010: 0dac 143c a22c 403d f0c3 be3d 5d02 3b3c
00000020: 1c35 2e3d 5aef 2abc 42e6 9fbc fcf7 13bc
00000030: 7366 253c 8090 56bc 5a2a a43d d724 913c
00000040: 593f d4bc 19d0 15bc 1655 533d 9948 ba3c
00000050: 9296 373d 6857 c73b 754a 26bc 9b09 1ebc
00000060: af27 da3b 1f0c 9d3d 5b06 4d3d a8dd eb3c
00000070: 9337 7f3d 17a2 a1bb 120f 84bd bf44 b73c
00000080: 60f2 b83c b8eb 333b 9dd2 4ebd 68b4 c3bb
00000090: 2e2b af3c 67d0 f03c 1ee1 f53c 86d4 733d
000000a0: a476 463d dbee 543d 4781 fbbc 4379 e1bb
000000b0: e4df 243d e356 fb3c 0f13 6f3d 2e4e 2dbc
000000c0: f40f 3c3c 956d c5bd 9c58 7a3d 6188 66bd
000000d0: ac1a 673d 183a 05bc 8a52 17bb 1396 9c3c
000000e0: 9b64 863c 77ad 683d f2db 8b3b d906 eb3c
000000f0: fe90 d4bc d4bd 8abc 1ba3 0abc 5a29 a5bd
00000100: 2ce1 093d 00bf cc3d cfba b0bc 6f7f 57bd
00000110: 8308 d23c fda5 8ebb 8099 073d beb4 39bc
00000120: 5988 543d b602 b0bc 0080 333c fb31 043d
00000130: 3df6 8ebc 8699 f23c d3e4 973d 7a93 38bd
00000140: 2d27 1d3d d2da a83d d516 e2bc bd49 853d
00000150: d9a4 7ebd d57e eebc 006a a93c 2d37 1f3c
00000160: d7fc b6bc 0fa6 9ebc 57af e53d 1f98 803d
00000170: 12d7 22bd 549d 5bbd d24f f43c 7e96 0ebd
00000180: d214 1ebc 576d e83c 3bdb 913d 5053 9e3c
00000190: 6082 c7bc e92a 793d baa2 90bd 0b00 3b3b
000001a0: 6204 823d c757 513b 2b3a 94bc 49a3 47bc
000001b0: 63ad 26bd 518c 82bd d28d 843d 4b86 6f3b
000001c0: 4ea8 d1bc 8311 473d 467a b7bc c1e8 73bd
000001d0: cfaa 7c3d 469a dc3c e99c 543d 431e 3f3d
000001e0: f9e2 9d3d 39e7 ab3c 9b6a 5ebd 53d9 f23b
000001f0: b2a4 6abc e914 133d b5e5 ea3c 423b b9bd
00000200: 775a 183d 8143 45bd d636 e73c 53fc 563c
00000210: 1a73 22be c850 4a3d f8f6 93bd 6494 e4bc
00000220: 51b5 8b3c fc55 ee3c fcd5 8f3c 2508 41bd
00000230: 98b4 373a d91c 323d 0054 febc 8a2f c83c
00000240: 896b 13be fe5a 0ebd 049f a63c 2a00 bf3b
00000250: 79df c6bc 995a 853d 2416 aebc 4308 463c
00000260: 2273 c6ba e3ca 183d 6131 143d 81c8 29bb
00000270: b800 eb3d cd07 733c 4a15 29bd 6f26 8b3c
00000280: 1660 e33c 823a 4c3d eea7 7bbd 0436 a1bc
00000290: 25da 86bc 6546 bd3d ae4e bfbd 9d9d 393d
000002a0: eba6 cc3d 2b5c 87bb 5be2 833d 618f bb3d
000002b0: 5eba 4cbc 56e0 1c3d a05a f83c 1d2b 123d
000002c0: 3f9a 9bbc a492 03bd 0ed0 2ebb e24f 423c
000002d0: b789 1038 bdaf 413d 9f16 e03b 55f0 aabd
000002e0: 2d34 093a ae72 013c 361d f6bc ea32 67bb
000002f0: 7c4d 843d 7fb7 c53c 43fd 02bc 33aa 8f3d
00000300: eb13 8eba a75f 073d 4568 5b3d a588 1e3d
00000310: 52d6 b7bc 5f8d 99bc a655 963d fcd4 8c3d
00000320: b218 3b3c d59f a93c 1e19 5f3d da8b 54bc
00000330: 8102 c0bc c67e 05bd 9ac4 943c d55c 06bc
00000340: 89f1 523d db48 6e3d ec09 d23b e975 1ebc
00000350: 6ee5 75bc e9d9 0c3d 3d07 c03d 5d6f 2c3d
00000360: cf19 f73c d14d b43d 1d81 08bb b70f aebd
00000370: 7fa9 07bd dee4 04bd 63de 3abd a2ec 993b
00000380: 7427 1b3b 30dd 703d 602d 603b 49ca 683d
00000390: 7e38 033d 6970 eb3b e58b 91bd 6220 b0bc
000003a0: f967 363c e627 653d d23e a73c 4454 a23d
000003b0: 8022 0e3d 266d 28bb 98cc b23c 0491 013c
000003c0: 9827 a63d 0f73 e53c 36b9 ea3c 80b8 333b
000003d0: 41a6 903c 8dbb 9c3c 53f6 893d e339 adbd
000003e0: 48e3 893c 2065 04bd 5a3e 2c3d 0357 3c3d
000003f0: 7d93 b33d 9466 a3bc 6771 45bc c93b 103d
0.03070125 -0.049680073 -0.00711926 0.028485939 0.009074223 0.046917565 0.09314716 0.011414138
0.042531118 -0.010433042 -0.019518975 -0.009031292 0.010095227 -0.013095975 0.080158904 0.017717762
-0.025909113 -0.009143853 0.051594816 0.022739695 0.04482133 0.0060834177 -0.010149588 -0.009645845
0.0066575627 0.076683275 0.05005489 0.028792217 0.06230886 -0.0049326527 -0.06448187 0.022371648
0.02257651 0.0027453732 -0.050493825 -0.005972434 0.021382894 0.029396249 0.03001457 0.05952885
0.04845299 0.051985603 -0.030701293 -0.0068809106 0.04025258 0.03068108 0.058367785 -0.0105777215
0.011478413 -0.09640042 0.06111966 -0.056282405 0.05642192 -0.008131526 -0.0023089969 0.01911453
0.016405394 0.056806054 0.004268163 0.028689789 -0.025948044 -0.01693622 -0.008461739 -0.08064528
0.033662006 0.09997368 -0.021573452 -0.052611765 0.025638824 -0.0043532834 0.033105373 -0.011334596
0.051887844 -0.021485668 0.010955811 0.032274228 -0.0174514 0.029614221 0.07416692 -0.04506252
0.03836744 0.08244862 -0.027598778 0.06508205 -0.06216893 -0.029113213 0.020680428 0.009717745
-0.02233736 -0.019366292 0.11215084 0.06279015 -0.03975589 -0.053616837 0.029823218 -0.03481149
-0.009648519 0.02837245 0.07121893 0.019326836 -0.02435416 0.060831938 -0.07062288 0.002853396
0.06348492 0.0031943189 -0.018094143 -0.012184926 -0.0406927 -0.063744195 0.064723626 0.003654855
-0.02559295 0.048600685 -0.022397172 -0.059548143 0.061686333 0.026929032 0.051907454 0.04665972
0.07709307 0.020984279 -0.054300886 0.007411161 -0.014321493 0.035908613 0.028673986 -0.09044506
0.03719565 -0.04816008 0.02822439 0.013121682 -0.1586422 0.049393445 -0.0722484 -0.02790279
0.017054232 0.029093735 0.01755809 -0.047126908 0.00070078066 0.043484543 -0.031045914 0.02443673
-0.1439649 -0.034754746 0.020339496 0.005828877 -0.024276482 0.06511421 -0.021250792 0.012086931
-0.0015140513 0.037302863 0.036179904 -0.0025906863 0.114747465 0.014833403 -0.04128007 0.0169861
0.027755778 0.049860485 -0.061439447 -0.019679077 -0.016461441 0.09241942 -0.09341179 0.045316327
0.099927746 -0.0041308603 0.06439658 0.09158207 -0.012495605 0.03829988 0.03031665 0.035685647
-0.018994449 -0.03212227 -0.0026674303 0.011859866 3.4460532e-05 0.047286738 0.006838634 -0.08346621
0.000523391 0.007900877 -0.030043226 -0.003527815 0.064600915 0.02413535 -0.007994953 0.07014885
-0.0010839676 0.033050206 0.053566236 0.038704533 -0.022441063 -0.018744169 0.07340555 0.06876561
0.011419462 0.020706097 0.054467313 -0.012972796 -0.023438694 -0.032591604 0.018160153 -0.008200844
0.051499877 0.05817495 0.006409874 -0.009671667 -0.015008314 0.034387503 0.093763806 0.04209839
0.030163674 0.08803905 -0.002082891 -0.08499091 -0.03312063 -0.032444827 -0.04562224 0.0046973983
0.002367464 0.05880469 0.0034206733 0.05683354 0.032036297 0.007185031 -0.07106761 -0.021499816
0.011133187 0.055946253 0.020415697 0.07926229 0.03470087 -0.0025699823 0.021826074 0.00790811
0.08113021 0.028008966 0.028652769 0.0027423203 0.017657401 0.0191324 0.06736436 -0.08458307
0.016832009 -0.032323003 0.04205165 0.04598142 0.087683655 -0.019946374 -0.012050963 0.035213266

fc3.weight f4 [4, 256]
00000000: bc47 c73e ac01 943e 7632 b53d 4775 24be
00000010: 4bf0 b23d a48e 0cbe 6db1 783d 42aa afbd
00000020: 75f9 d53d 693c de3e b6bb 3b3e 86f0 fc3d
00000030: 7a59 81bd c30d babe 1d5e 843e c544 f3ba
00000040: 0816 41bd d1b9 66be 58b3 9dbd d6d2 e4bd
00000050: 62ab 753e 9df2 5fbd dbbe 96be 2ccb 8d3d
00000060: 5ccc 003f bbf4 653d 2f64 c5bd d760 95bd
00000070: df0d db3d 74c1 eabe 0c9e 113c 6853 593d
00000080: 0595 133e 5148 5dbe a37a a5be 372c 5f3e
00000090: a91e 243f 0b8c 01be c7fc 19be 16d3 43be
000000a0: f277 09be 6c94 c3bd 66a7 ee3b 5ee7 edbd
000000b0: 09d6 c1bd f6cf 4bbe a6a8 4c3d dabc 313d
000000c0: 02bc bdbd be75 a63e e47f 06bd 1471 953d
000000d0: 7f62 563d 1f5f 3d3f 07fe 13be f6ec 4c3f
000000e0: 425b 92bd 51f2 403f ef87 00be 061d 323d
000000f0: c96f 973d f722 c93e 842a a03d a5ab 053e
00000100: b188 80be 7e12 2f3e 90db 733e 3493 8cbe
00000110: 0d05 ab3e 0657 b9be 36ad acbd 0022 2d3e
00000120: a776 26bd 66fa ec3d 3b55 d6bc b881 aabd
00000130: 758c 02be 5348 173e 4711 c7bd 1b19 e2be
00000140: bb6c 9d3d ee37 7cbd 0bd5 cebd 44b7 fc3c
00000150: f86d b63e 62db e7be 88ce 9fbe e8ea e1bd
00000160: 9378 ee3e 3550 cd3e a291 89bd 08b7 a6bc
00000170: 6f67 a7be c499 bd3e 875a ebbd 8913 513f
00000180: f845 61be d22f 58be d17b d2bd e863 4fbd
00000190: 5441 f0bd 882c 423d 0bcb f83e 7fbf 873e
000001a0: 96e5 c13e f1be 16be ccfc 71be 3f77 96be
000001b0: fb2f 8ebe 25bc 5e3f 76b3 393e c1cf a33e
000001c0: 74c9 63be 1e2b 6b3e 036f 813b ecd5 153f
000001d0: 0f35 73bd f66f 05bd 11ab 55be 7206 f9bd
000001e0: 5f1c f1bc 7db5 913d 0450 78bb 70fc 3d3e
000001f0: b283 b03d dcc7 68bd eeed bd3b afae b7be
00000200: 5483 0abe e417 fbbd d8fc 09be e779 b4bd
00000210: 4e39 223f e502 1b3f d574 7bbe adca 013f
00000220: e77d d33e 1040 123e 6943 ae3c 5ffd 153e
00000230: d83e 023f 5c87 b23d 16bf b2be 304b 1c3b
00000240: ae6f a73e a619 16be 91c1 0b3f 1993 833e
00000250: cb1a 323b eeea d13d 015d 053d 0ad5 13be
00000260: e695 2cbe 4e8e a93e 2d24 173b 6242 c5be
00000270: 4bdd 09bd 9ce3 bdbd e1fd 873e bba6 36be
00000280: 638d 81bd c1d7 07be 41ef 863d 8244 ac3e
00000290: 10ed e93e 31e8 cd3d 9974 0e3e a4a8 913c
000002a0: 793a ebbc acdc 9dbe 7ed2 5d3e 8d9e debd
000002b0: e77e 0c3c 7f91 963d e323 c33d c5b2 9f3e
000002c0: 934c f4bd 6c9b 183e d6ec 14bd 451b bb3e
000002d0: a98c c1bd 9058 7a3e d5f8 133f f210 13bb
000002e0: 602e 0e3d 6667 0dba 0070 e43c 7570 47be
000002f0: c20a 80be b38c 9bbe 46e9 973e 5d54 b03e
00000300: 9cd2 debe 5ddf c2bd 50e8 97bc d2ba 073e
00000310: bd4d 6c3d 9d38 5ebd d0b0 c43d e686 78bd
00000320: 7f0e 4f3f 53b4 00bf b197 db3d 9fed 203f
00000330: 1e9a 80bd 5b46 8d3e 2123 943c 8569 eb3e
00000340: d159 25be ac70 34be 2806 e83e b1b0 013f
00000350: 664b d83e d483 85bd fad9 253d cf0d 3fbd
00000360: c68b 363e 1de1 c6bd 3877 49be a457 abbd
00000370: e86d b13e dd5f b73e d383 c23e 452a ae3e
00000380: e7b1 2b3d bd13 283f 7c61 fbbd 4536 0f3d
00000390: 7393 b3bd e281 6dbe 3265 cbbe 3351 8f3e
000003a0: e339 113d 85f9 0c3f a8d5 003d 84ba 2cbe
000003b0: 3064 c4bd a7e1 63be 7b67 073f 8773 aa3e
000003c0: 24fc 283d dc75 f4be 1981 6fbd 57ff 0ebf
000003d0: d8e3 6abe 76a2 8dbe 6180 033e 92c2 1f3e
000003e0: 0e43 e33c 4509 d03e 6b3e 0fbf 66b5 983e
000003f0: 7d54 1cbe 0d13 3fbe ec9d 81be 503b 123f
0.38921916 0.28907526 0.08847515 -0.16060363 0.087372385 -0.13726288 0.06071608 -0.08577396
0.10447971 0.43405464 0.18333325 0.12350564 -0.063158944 -0.36338624 0.25853053 -0.0018559924
-0.04714015 -0.22531821 -0.07700223 -0.11173026 0.23991159 -0.054674733 -0.29442486 0.069235176
0.5031183 0.056141596 -0.09638249 -0.07293861 0.10696005 -0.45850718 0.008887779 0.053058058
0.14412315 -0.21609618 -0.32320127 0.2179421 0.64109284 -0.12651078 -0.15037833 -0.19123492
-0.13424662 -0.095497936 0.007283139 -0.116163954 -0.09464652 -0.1990355 0.049965523 0.043392994
-0.09264375 0.32511705 -0.03283681 0.072969586 0.052340027 0.7397327 -0.14452372 0.80049074
-0.07146312 0.75369745 -0.12551855 0.04348471 0.07394368 0.3928449 0.07820609 0.13053758
-0.25104287 0.17096898 0.23814225 -0.27456057 0.3340229 -0.36199206 -0.08431475 0.16907501
-0.0406405 0.11571197 -0.026163688 -0.08325523 -0.12748893 0.14773683 -0.09720092 -0.4415978
0.07686754 -0.061576776 -0.100992285 0.030849107 0.35630774 -0.45284563 -0.31212258 -0.11031133
0.46576366 0.40100256 -0.067172304 -0.020350948 -0.326961 0.37031376 -0.11491876 0.81670433
-0.21999347 -0.21111992 -0.10277522 -0.050632387 -0.1173121 0.04740575 0.4859241 0.26513287
0.37870473 -0.14721276 -0.2363159 -0.29387853 -0.2777098 0.87005836 0.18134865 0.3199444
-0.22244817 0.22965667 0.003950001 0.58529544 -0.059376772 -0.032577477 -0.20866038 -0.121594325
-0.029432474 0.07114694 -0.003788949 0.18553329 0.08618869 -0.056831226 0.0057961857 -0.3587546
-0.1352666 -0.12260416 -0.13475358 -0.088123135 0.6336869 0.6055129 -0.24556287 0.50699884
0.41306993 0.1428225 0.021272378 0.14647435 0.5087714 0.08717224 -0.34911412 0.0023848526
0.32702392 -0.14658222 0.54592234 0.25698164 0.0027176614 0.102498874 0.0325594 -0.14436737
-0.16854057 0.33116382 0.0023062334 -0.3852721 -0.033658307 -0.09271929 0.26560882 -0.1783704
-0.063257955 -0.13265897 0.06588603 0.33646017 0.45688677 0.100540526 0.13911666 0.01778061
-0.028714405 -0.30832422 0.21662328 -0.10870085 0.008575178 0.0735197 0.09528329 0.31191078
-0.11928668 0.14903039 -0.036358677 0.36544243 -0.09450657 0.24447846 0.5780156 -0.002244052
0.034712195 -0.0005394131 0.027885437 -0.19476493 -0.25008208 -0.30380782 0.2967016 0.34439364
-0.43520057 -0.095152594 -0.018543392 0.1325486 0.057691325 -0.05425321 0.09604037 -0.060675524
0.80881494 -0.5027515 0.10722292 0.6286258 -0.062793955 0.2759274 0.018083157 0.45978943
-0.16147543 -0.17621106 0.45317197 0.50660235 0.42245024 -0.06519285 0.04049108 -0.04664403
0.17826757 -0.09710906 -0.19674385 -0.083663255 0.34654164 0.35815325 0.379912 0.34016624
0.041917708 0.6565512 -0.12274453 0.034963865 -0.08768358 -0.23194078 -0.39725643 0.27991638
0.035455596 0.55068237 0.03145376 -0.16868025 -0.09589422 -0.22254048 0.52892274 0.33291265
0.041256085 -0.4774617 -0.058472726 -0.5585837 -0.22938478 -0.2766301 0.12841941 0.15601566
0.027741935 0.40632072 -0.5595462 0.29825896 -0.15266605 -0.18659611 -0.25315797 0.57121754

fc3.bias f4 [4]
00000000: 03e3 32bd f64f 943c 21eb 64bd 5822 d8bd
-0.043673526 0.018104535 -0.0558883 -0.105534256
