p3_collab_compet/model/p3_ddpg_agent1_critic.pth (torch_old, 24821 bytes, 5 tensors)

fcs1.weight f4 [64, 24]
00000000: ca90 ccbc 9a72 ba3e 77b8 643d 6389 b6bd
00000010: 6967 4e3f 80c0 0dbf b082 8dbd a611 853d
00000020: 9b02 f73d 7caf 583d 4f24 edbd 4a6b 1f3e
00000030: 63cc b73e a87a 82be 79cd b03d c65b 693c
00000040: 7618 233e 2a1d af3e e96c c2bd 5c57 113e
00000050: 24e6 2fbf 427f 58bf 78ee b03d 7c84 293e
00000060: 565d 8e3e dadb fabd 13d3 6a3d e2c5 953d
00000070: f6c2 09be 21d8 323f fca2 29bd 229e 06be
00000080: 5f91 033f 63ed ea3e 211e 0fbd 096f 1c3d
00000090: 5147 90bd 28b8 aa3e a089 193d 6968 92bd
000000a0: 0b45 7a3e 79cf 7f3e 630e 72bc 7c29 a03d
000000b0: 3822 233e 354d e63d 0a26 cdbd c723 48bd
000000c0: f25e 80be 5a54 40be 8e2f edbc f893 cfbc
000000d0: e9ff b13e 61de aabc 2dcd 3e3d 1765 263d
000000e0: 9e57 8ebe 7bbb 99bc 9cd3 ebbc cdcb 22be
000000f0: c234 be3e 225f d93b d061 b93c 6772 43be
00000100: 66c5 c9bd fe49 e63d 023c c9bd aa2d d4bd
00000110: be33 9b3e a0de 833e ffde 8c3d 3c5a 26be
00000120: 8c1f 7cbc ce38 1e3e 2b8a 513d 2b65 8f3d
00000130: 160d ba3d 87cf afbe b4b0 963c 445d 783d
00000140: 4ebc 10be 5d5e ad3e 2591 913d c472 013e
00000150: 5fdc f53d a43b b5bd 4590 c1bc 4329 ec3d
00000160: b3a2 c43d db26 9d3e f19a 88bd 8014 753c
00000170: a09f a13c 3d4e dd3d d59e 1dbd 2431 893d
00000180: a1a9 aebd 6080 abbd b842 c6bc 2cd8 c93d
00000190: 5f0b 0a3f 4e93 75be 6407 d13c 72bb da3c
000001a0: 485f b3bd 229e c73e 5f66 23bd aaed 023f
000001b0: e0b1 593e 7ada 0bbf 55a8 ac39 4f79 093f
000001c0: 21c3 0f3d 8efc 363f 07bf be3d eb1e 3abf
000001d0: 026d efbe 7007 22bd 2e14 86bd 9d44 3ebf
000001e0: 3fd1 603f 9144 013f 54d8 b5bd d56b 36bd
000001f0: cb4a 8abf bc0a 5fbf fb02 17bd 667e 38bc
00000200: 2c5b 7b3e 2591 3a3c cd94 03bd 7b51 edbd
00000210: 1274 763d 3b35 36be ba9a 46bd ed2a 883b
00000220: c8bd e13b 5b8e 94be f653 89bc 9662 e53c
00000230: a936 643f f072 913e 8659 423d 3695 403d
00000240: 7b3a b1bd d3d1 68bf 783d 93bd 6306 693d
00000250: 21ab debd 1eb1 0d3d 4f90 d83c 3328 b73c
00000260: d5b3 cc3d 4f8b 18bf dbef 9fbc 9cdf 8cbc
00000270: 5de8 4cbe a1e6 e1be 85d4 203c 79ed 34bd
00000280: 1b1f 093e bee3 d1be c607 9ebc 9c3f 2fbe
00000290: f6c6 f83e 8252 1e3e 802d 39bc d454 30be
000002a0: 7c0e 993b ed06 233f 11c2 3d3d 3675 c73d
000002b0: c377 c5bd 8666 b9bd 8a6b 51bd 055f ef3d
000002c0: e2b3 233e 8a4e 1d3f cfd8 c73b 5930 573d
000002d0: 4cbe cb39 1899 f43e 321a 4b3d 434c 0dbe
000002e0: 3ee4 563e f50a fc3e c126 723d fc37 b6be
000002f0: d222 d9be 51e9 74bf 85d4 103d 9e63 edbe
00000300: d303 8a3c ccfb 583b ccc0 0ebd 344c 25bd
00000310: bece 0a3e 587f 1a3f d13f 033d 75d2 95bc
00000320: c3ce a5bd 5bc8 b6bd ae02 933d 56a8 57bd
00000330: ed14 0bbe c571 093f dbc0 8bbd 8c3d 593c
00000340: e188 c6bd 2648 b13e 3090 91bd 9aea b1bc
00000350: cf62 68bd ab34 37c0 c469 7b3d c9f8 a1bc
00000360: ca88 9e3e 2c21 823e 0313 0c3d b076 a6bd
00000370: 8c1c d6be 528a 0f3e b0de a1bc 01f1 95bc
00000380: c1d0 9a3c b9bc 3c3e 4323 f63b e893 703d
00000390: 39d8 193f e5c4 b5bf 9474 3a3b 14da 24bd
000003a0: 89b2 45bd bbe8 193e 1405 293d 6bcd 2c3f
000003b0: af7f d03e a814 4dbf 9004 16bd bd23 fb3e
000003c0: bb8b 1fbe 117f fd3d e70b d13d fde3 d03d
000003d0: 61c0 dc3d 10ee b3be c09e d0bd 5b80 7b3d
000003e0: d869 b13d b485 ee3d 8dcc 8c3d 5ef5 76be
000003f0: c843 76bd fc60 08bf 38f4 833d 2c76 80be
-0.024971385 0.3641556 0.055839982 -0.08912923 0.8062654 -0.55371857 -0.06909692 0.06497507
0.12061044 0.05290173 -0.11579191 0.15568271 0.35898122 -0.25484204 0.08632941 0.014243072
0.159273 0.34201938 -0.09493429 0.14193481 -0.6871054 -0.8456918 0.08639234 0.16554445
0.27805585 -0.122489646 0.057330202 0.07313134 -0.13453278 0.69861037 -0.0414152 -0.1314626
0.51393694 0.45884237 -0.034940843 0.03819183 -0.070448525 0.33343625 0.037484765 -0.07148821
0.244404 0.24981488 -0.014773938 0.078204125 0.15931022 0.11245195 -0.10017021 -0.048862245
-0.25072438 -0.18782178 -0.02895334 -0.025339112 0.34765556 -0.020857992 0.04658239 0.04062375
-0.27801222 -0.018766155 -0.028787427 -0.15898056 0.37149626 0.006633655 0.022629648 -0.1908661
-0.09852104 0.11244582 -0.09825899 -0.10360272 0.30312914 0.25755787 0.06878471 -0.16245359
-0.015388381 0.15451357 0.051157158 0.07001718 0.09084527 -0.34338018 0.018394805 0.06063582
-0.14134333 0.33861056 0.07107762 0.12641436 0.12004923 -0.08849266 -0.023628363 0.115313075
0.09601345 0.30693707 -0.06670178 0.014958501 0.019729435 0.108059384 -0.038481552 0.06698826
-0.08528448 -0.08374095 -0.024201736 0.09855685 0.539236 -0.23981974 0.02551622 0.026700709
-0.08758408 0.38987833 -0.03989255 0.51143897 0.2125926 -0.54630244 0.00032931814 0.5370073
0.0350982 0.7147912 0.09313779 -0.7270343 -0.46762854 -0.039557874 -0.06546818 -0.74323446
0.87819284 0.5049525 -0.08879152 -0.04453643 -1.0804075 -0.87125754 -0.036868077 -0.0112606045
0.24546498 0.011387144 -0.03212433 -0.11587807 0.060169287 -0.17793743 -0.048487402 0.004155508
0.0068890788 -0.2901486 -0.016763669 0.028001111 0.89145905 0.28408003 0.047448657 0.0470173
-0.086537324 -0.90945166 -0.071894586 0.056890856 -0.10872484 0.03459274 0.026436 0.022358036
0.09995238 -0.5958757 -0.019523552 -0.017196469 -0.20010515 -0.44121268 0.009816294 -0.044171784
0.13390772 -0.40994066 -0.019290816 -0.17114109 0.48589295 0.15461162 -0.011302352 -0.1721986
0.004670916 0.6368244 0.046327654 0.09739153 -0.09641983 -0.09052758 -0.051127948 0.116880454
0.15986589 0.61447966 0.0060988436 0.052536342 0.0003886096 0.4777305 0.04958553 -0.13798623
0.20985505 0.4922711 0.05911899 -0.35589588 -0.42409378 -0.9566851 0.035358924 -0.46365064
0.016847527 0.0033109067 -0.034851834 -0.040355876 0.13555428 0.6035056 0.032043282 -0.01828883
-0.08096077 -0.089249335 0.071782455 -0.052650772 -0.13582201 0.53689224 -0.06823894 0.013259303
-0.09694076 0.34625357 -0.0710758 -0.021718312 -0.056734856 -2.8625896 0.061380163 -0.01977195
0.30963737 0.25415933 0.03419782 -0.081281066 -0.41818655 0.14017609 -0.019759506 -0.018303396
0.01889837 0.18431367 0.0075115277 0.058734804 0.60095555 -1.4200712 0.0028450834 -0.040247038
-0.048265968 0.15030186 0.04126461 0.6750094 0.40722415 -0.80109644 -0.036625445 0.49050704
-0.15580647 0.123777516 0.10207348 0.10199735 0.10778881 -0.35142565 -0.10186529 0.061401706
0.08662766 0.116465956 0.068749525 -0.24117038 -0.060123235 -0.53272986 0.064430654 -0.25090158

fcs1.bias f4 [64]
00000000: 7034 46be 4972 1f3e 62a3 0dbc ee94 d7be
00000010: 3c54 12bf 97c3 cfbd 70cd 553e 804b 3dbe
00000020: 135b 5f3f 2b9a 0b3e 09d1 513e 1960 e8be
00000030: db11 acbd 6a13 963e a1c0 86bf 510e 033f
00000040: 52d1 2abe 3541 ee3e 9b56 31bd 2126 a23e
00000050: 4977 e63d 70a7 1d3e da93 2cbf 8c59 3dbe
00000060: 9fa9 973e b3cf e83e 97f7 afbe ff59 2ebd
00000070: d763 41bd cbc5 64be e5de 8c3e dbef cbbe
00000080: 4788 91be a50d 07bd 3c6c c83d d865 d3bd
00000090: 64d2 4ebf 7184 bd3e 2e25 eabe 6ee7 c0be
000000a0: 4fd9 98bd d39a 4abf 0272 f53d f9ee 7abe
000000b0: 329e 90bf edf0 c03e b89e 93bd 95bf 72be
000000c0: 27b8 dfbe c295 5abe b5b3 223d 0b86 d5bd
000000d0: 580d 09bf 1f02 19bf b0ff 843e 3793 f0bd
000000e0: 2575 cfbe bedc 773c f75d 0c3f fb42 c6bd
000000f0: 24cf ac3c 5699 81be 22c9 c3bc 518f a2bf
-0.19355941 0.1557094 -0.0086449105 -0.42105812 -0.5715978 -0.10144728 0.2087915 -0.18485832
0.87248343 0.13633029 0.20489897 -0.45385817 -0.08401843 0.29311687 -1.0527536 0.5119372
-0.16681412 0.46534124 -0.043295484 0.31669715 0.112532206 0.15395904 -0.67413104 -0.1849119
0.29621598 0.45470962 -0.34368584 -0.042566296 -0.047214355 -0.22341077 0.27513805 -0.39831433
-0.28424284 -0.032971997 0.09786269 -0.103221595 -0.8078978 0.37015107 -0.4573149 -0.37676567
-0.07463323 -0.79142493 0.11984636 -0.24505223 -1.1298277 0.37683812 -0.072080076 -0.23705895
-0.43695185 -0.2134619 0.039722163 -0.10425957 -0.53535986 -0.5976886 0.25976324 -0.11746829
-0.40519062 0.015128313 0.5483088 -0.09680744 0.021094866 -0.253123 -0.023899619 -1.2699987

fc2.weight f4 [64, 66]
00000000: ddf0 19be 8fe3 8abc a1a1 4a3d bb00 e6bc
00000010: 84d2 4dbd 7f4d 8b3d 86a5 5cbd 47b3 8b3d
00000020: 3e41 5bbf af73 383e df40 f4bd 90bd 013e
00000030: 1d14 aabc facf 6bbf 363a 95bd 0d7e 8cbe
00000040: a429 6c3d baea 60bd a437 cebc e1b1 d4bd
00000050: c562 003e 4194 a53d d81f dc3d 1ce5 533d
00000060: 011e eebd 7e75 513e d7ff db3d 7b6e cabd
00000070: 3ad4 f0bc 6128 ab3e e949 a43e 00c7 92bd
00000080: 8689 0abe cbc4 e2bc 3117 1fbd d1e2 2d3d
00000090: 3550 063d 8d33 82bd f6ba 21be e172 cbbd
000000a0: ef62 c7bc 34bb 21bd 3c66 443c be05 c7bc
000000b0: 83e6 f13d 2177 19be 1b5b 203e 5d0a 81bb
000000c0: 6958 57bd 242e 37bc 9089 8539 eb3a c03c
000000d0: 8113 4e3d 5d90 a63d 5262 e7bc 16bb d2bd
000000e0: 28e5 ccbd af79 8c3e 3184 b7be da74 fb3d
000000f0: c6d3 4fbe e143 973d 9381 4d3d 748d 81be
00000100: 7898 813e 2144 a5bd a465 c9bd 528b 49be
00000110: 6302 853c 37aa 18bc 9035 22bd c741 1dbd
00000120: e2bc bebd 3b60 d4bd 40e5 dfbc 0e00 bcbb
00000130: 745f 8cbd 01f2 e7bd f998 e43c b9f4 42be
00000140: 0002 01bd 849e febd 6bf9 513d adf1 76bd
00000150: 387f c43d ca20 be3c bdbf bfbd 8e46 17be
00000160: f213 d4bd 89ba bdbd 6986 343c 6024 cabd
00000170: beb7 01bb 4efb 01be 0673 debd ad6e 853b
00000180: 40ef 79bd 8280 37be 46c2 0d3c d545 f0bb
00000190: b92f 53bc be11 77bd 754e f4ba 349e 80bd
000001a0: 5cd4 0dbd 68b5 8abd fc69 a43d 12d0 e1bd
000001b0: 5471 213d b4a8 b7bd fc1a 103c 1a03 18bd
000001c0: 0cef 43bd 86d1 f0bd 206f c5bd 76eb d0bc
000001d0: c85f c23c 1dd0 d7bd 7009 eebd 3c27 84bd
000001e0: c526 a3bd 2b53 c2bd 4a15 e7bc dc63 b2bd
000001f0: af11 883c 5bf5 83bd 951b 1fbe 4f9e b7bc
00000200: afdd 9abd 7b6f 47be 77c6 353d bff6 63bd
00000210: 9022 e3bd 9c74 48bd 7e66 94be 017a f23d
00000220: 44c3 233d fc46 64bd 7536 e7bd cb74 1ebe
00000230: 4961 2fbf 2262 bebd 8860 f7bd b3ca 34be
00000240: e83e cd3d f4b8 e6bd dd7f 103c 2a42 fdbe
00000250: 0ec5 cdbc 7f04 873e 8974 7dbe 644e 48be
00000260: 3f3f 04bf 830c 223e 1d5b cf3d 5534 bcbd
00000270: 8e38 69bd 33cd 01bf 9c31 ca3d 6e16 95bf
00000280: 08d3 1bbd e95d 5abb af2c e7be dc37 10bf
00000290: 512c e33d 0a98 41be 03d6 fdbd 2167 24bf
000002a0: 17ce edbc ab55 19bf eb5b 06be 9b2d 89bd
000002b0: f964 3abe 2789 66be 6c89 22bf a729 e5bd
000002c0: 9111 573c 5a0f eabd 5d71 3dbe 81a7 da3c
000002d0: a63f f7bd 9570 64be 7dd0 aa3c 6e02 a9bd
000002e0: 281d 2bbe 0114 2cbe 8b7b 9fbe a478 16be
000002f0: 1c17 9abe c1b1 7bbc 997a 18bd ddb3 a5be
00000300: ec80 293e d3df d63b 758e b53c b46e 29bc
00000310: cf0e 00bf 3c90 df3c a97c 983e 6842 ccbe
00000320: 29b6 d0bd e48e 2bbe 2aa2 cbbd 1916 95bd
00000330: ef78 80be f4bd 43bc 045b 20bf d297 a7bd
00000340: 0b57 3abe 5dba 773d a184 24bf 7271 c0be
00000350: 29b9 3d3c 5764 8cbd d856 dabb 5d09 adbe
00000360: dc49 efbe 5499 f93d 725c 78bd fe7c 2abe
00000370: 7043 c33c 03f1 243d d18c 83bd f04d 28bf
00000380: 2c20 f6bd ba60 7fbd 17d7 3dbe 7f92 88bd
00000390: f9ab a9be d88e d8bd f6d7 b2bd 8b74 06bf
000003a0: be81 63be 885b 3f3e 4be6 263d fa26 afbe
000003b0: d4f1 94be c01b eebd e288 1c3c 0901 6cbe
000003c0: 226a 8dbe 2d7e 40bf dd70 503e bc93 dcbe
000003d0: 0cd4 afbe b81c 2cbc c257 83bc e176 9d3d
000003e0: ac2b 86be fdc5 e33d 5b12 eebd 7e33 7c3e
000003f0: c446 6bbd 3141 a5be 7c65 26bd 51bb 323e
-0.15033288 -0.016954212 0.049470548 -0.02807652 -0.05024959 0.068018906 -0.053868793 0.06821304
-0.85646427 0.1801288 -0.11926436 0.12669969 -0.020761544 -0.9211422 -0.072864935 -0.2743992
0.0576569 -0.054911353 -0.025173016 -0.1038549 0.12537678 0.08084918 0.10748261 0.051732168
-0.116268165 0.20454976 0.10742157 -0.09884354 -0.029398073 0.33429244 0.3208764 -0.071668625
-0.13529024 -0.027681729 -0.038840476 0.042452637 0.032791335 -0.06357489 -0.15793976 -0.09934021
-0.024339167 -0.03948517 0.011987265 -0.02429473 0.11811545 -0.1498685 0.15659754 -0.003938003
-0.05257455 -0.011180434 0.0002547023 0.023465594 0.05031157 0.08133004 -0.028245125 -0.1028959
-0.100046456 0.27436587 -0.35843042 0.12278147 -0.20295629 0.07385994 0.0501724 -0.25303233
0.25311637 -0.08069635 -0.098338395 -0.19682053 0.01623649 -0.009317926 -0.039601862 -0.03839281
-0.0931337 -0.10369917 -0.027330995 -0.005737311 -0.06854144 -0.113254555 0.027904974 -0.19038667
-0.031496048 -0.12432578 0.051263254 -0.060289074 0.095945776 0.023208994 -0.09362743 -0.14773008
-0.10355367 -0.092640944 0.011018374 -0.09870219 -0.0019793357 -0.12693521 -0.10861783 0.0040720315
-0.061019182 -0.17920116 0.008652275 -0.0073325434 -0.012889796 -0.060319655 -0.0018639105 -0.06280175
-0.03462635 -0.06772882 0.080280274 -0.110260144 0.03941472 -0.089677244 0.008795496 -0.037112333
-0.047835395 -0.117587134 -0.09640336 -0.025502902 0.023727313 -0.10537741 -0.11622894 -0.06452796
-0.07966379 -0.09488519 -0.028208394 -0.08710453 0.016609995 -0.06443282 -0.15537865 -0.022414355
-0.07561814 -0.1947612 0.044378724 -0.055655237 -0.11090577 -0.048939332 -0.28984445 0.11839677
0.03998114 -0.05573176 -0.11289684 -0.1547424 -0.6850782 -0.09296061 -0.12078959 -0.17655449
0.10021764 -0.11265746 0.0088195475 -0.49464542 -0.025118377 0.26370618 -0.24751486 -0.19561154
-0.51659006 0.15825085 0.101248 -0.09189669 -0.0569387 -0.50703734 0.098727435 -1.164747
-0.038043052 -0.0033320135 -0.45151278 -0.56335235 0.11092437 -0.18905655 -0.12394335 -0.6421986
-0.029028935 -0.59896344 -0.13121001 -0.06698152 -0.1820258 -0.22513257 -0.6349094 -0.11189585
0.013126747 -0.11428709 -0.18500276 0.0266912 -0.12072687 -0.22308572 0.020851368 -0.082524166
-0.16710341 -0.16804506 -0.31148943 -0.14694458 -0.30095756 -0.015362204 -0.037226293 -0.32363787
0.16553086 0.0065574436 0.022162655 -0.010341335 -0.50022596 0.027290456 0.29782608 -0.39894414
-0.10190994 -0.16753727 -0.0994304 -0.072796054 -0.25092265 -0.011947144 -0.6263888 -0.08183254
-0.18197267 0.060480464 -0.64264876 -0.37586552 0.01157979 -0.06855076 -0.0066631846 -0.33796206
-0.46736038 0.12187448 -0.060635038 -0.16649243 0.023835868 0.04026891 -0.06423343 -0.65743923
-0.12017855 -0.062348105 -0.18539082 -0.06668567 -0.33139017 -0.1057412 -0.087325975 -0.5252158
-0.22217461 0.1868726 0.04074697 -0.34209424 -0.2909075 -0.11626387 0.00955412 -0.2304727
-0.27620035 -0.7519253 0.20355554 -0.43081462 -0.34341466 -0.010504894 -0.016033057 0.0768869
-0.26205194 0.11121748 -0.11624595 0.24629018 -0.057440534 -0.322763 -0.040624127 0.17454268

fc2.bias f4 [64]
00000000: 953d 963e 8dea 2ebe 68b6 463d 7d03 093e
00000010: a545 3e3f ed5b cabe 649c 50be 6c8b 60be
00000020: 8f46 2e3e 8142 023f 5301 403c 7e60 89be
00000030: 8620 b9be 3f10 39be db0d 1dbe f793 293e
00000040: 1d26 5ebd 7a0e d5be 46aa 423d 0fff 34bb
00000050: f101 03be 596d cd3d 7a49 0abf 2849 69be
00000060: 7b80 dd3e c844 70be de35 dfbd d139 533e
00000070: 531e 95be 0dbd 4fbd 166e 2fba 5285 453e
00000080: 04c0 8bbd 24d6 4dbe 1a40 473e 5c64 10bf
00000090: e1a4 c3bd 8e87 11bf cdba 49bf 5e15 8ebe
000000a0: c391 c1be 043a 29be b151 a83a 3bb4 41be
000000b0: dc9e 5cbf 7538 5fbe e5ea 0bbd 2be9 c5bd
000000c0: fb94 c6bd a20b 3abd 0dd3 463c 91fd 3abd
000000d0: 209a a9bd 96d7 50be dee4 da3d 329d 00bf
000000e0: fd45 8c3d a6fa 523e 3e60 393e c2af 34bf
000000f0: 2d4b 8fbe ac87 2f3e e923 afbe 60a7 c53e
0.29343858 -0.17081662 0.0485138 0.13380237 0.7432502 -0.3952326 -0.20372158 -0.21928185
0.17019103 0.50882727 0.011719066 -0.2683143 -0.36157626 -0.18072604 -0.15337317 0.1656035
-0.054235566 -0.41612607 0.047525667 -0.0027617847 -0.1279371 0.10030622 -0.54018366 -0.22781813
0.43262085 -0.23463738 -0.10898946 0.20627524 -0.29124698 -0.050717402 -0.00066921243 0.19289139
-0.068237334 -0.2010122 0.19458047 -0.56403136 -0.095529325 -0.56847465 -0.7880066 -0.27750677
-0.3780652 -0.16526037 0.0012841729 -0.18916409 -0.861799 -0.2179888 -0.03415956 -0.09663614
-0.096963845 -0.04542125 0.012135279 -0.045651976 -0.0828135 -0.2039474 0.10688184 -0.5023986
0.06849287 0.20603427 0.1810312 -0.70580685 -0.27987042 0.17141598 -0.34207085 0.3860426

fc3.weight f4 [1, 64]
00000000: 84be 273c c47a 40bb 3f89 a5bc cf28 c33c
00000010: cba7 ca3c 7952 413d baa2 f7bc b151 edbc
00000020: acdc f73c 5b9a 033d d7f2 22bd 03dc 6d3b
00000030: 504c d7bc bebb dd3d 8123 b13d 911e bd3c
00000040: dc80 6f3c 4fa3 96bd 2496 fabc ce8a 1b3d
00000050: 14a3 ccbc f09b da3c a1a6 0b3d 8a6a 51bd
00000060: f99a a93c caa6 f2bd 2f92 81bc 3380 903c
00000070: eff1 cc3c cb34 91bc 01ef f1bc 0cd8 36bc
00000080: 1cfc c2bc a905 c73b 2b1b f23c cc42 5d3c
00000090: 1933 1c3c a768 2bbd bc36 a33c 5dbe b3bc
000000a0: 3ba9 a3bc 8faa 8bbc aa3a 89bc e6e6 8fbc
000000b0: a004 9dbd a3bb 8f3d f748 6b3d 61d8 8f3c
000000c0: 30a2 623d a2ee 663c 5b5b 4ebd 2bf0 24bd
000000d0: 6d12 0ebd 631a bc3c 27fa 9cbc 5d99 e4bc
000000e0: 38b3 80bc ab29 333d aa8e b83c 4a82 c1bc
000000f0: 6ecf 563d cd0a a7bc 2160 2dbd 9e51 e63b
0.010238294 -0.002937005 -0.020207046 0.02382317 0.024738213 0.047197793 -0.030228961 -0.028969618
0.030256592 0.032129627 -0.03978237 0.0036294467 -0.026281506 0.108268246 0.0864935 0.023085864
0.014618125 -0.073553674 -0.03058917 0.03797417 -0.024980105 0.026685685 0.034094457 -0.051126994
0.02070378 -0.11848219 -0.015816776 0.017639255 0.025017707 -0.017725369 -0.029532911 -0.011159908
-0.023801856 0.006073673 0.02955397 0.013504695 0.009533667 -0.04184785 0.01992356 -0.021941358
-0.019978156 -0.017049102 -0.016751606 -0.017566156 -0.07666898 0.07018211 0.05744263 0.017559232
0.055330455 0.01409498 -0.050380092 -0.040268105 -0.03468554 0.0229618 -0.01916225 -0.02790516
-0.015710458 0.04374091 0.022528965 -0.023621697 0.052443914 -0.020390892 -0.042328004 0.0070287725
