p3_collab_compet/model/p3_ddpg_agent0_critic.pth (torch_old, 24821 bytes, 5 tensors)

fcs1.weight f4 [64, 24]
0	0x3a04f675	0.00050721254
1	0xbe3864d1	-0.18007208
2	0x3d6738d3	0.056450676
3	0xbd85afdf	-0.065276854
4	0xbd8c2023	-0.06842067
5	0x3ed226f9	0.4104536
6	0xbd8c42a1	-0.06848646
7	0x3db5ea29	0.08882553
8	0x3d71c4f2	0.059025712
9	0xbe44148a	-0.1914846
10	0xbddf381e	-0.108993754
11	0x3df238c0	0.118272305
12	0x3e873670	0.2640872
13	0x3cf647a4	0.030063458
14	0x3dbeba7d	0.093129136
15	0xbcbdc6c8	-0.023166075
16	0xbda975a6	-0.08274393
17	0xbd4e2afc	-0.05033396
18	0xbccf1545	-0.025278697
19	0xbd93aac3	-0.072103046
20	0xbe15a332	-0.14613035
21	0xbf860922	-1.0471537
22	0x3e1fcb1b	0.15604822
23	0xbd46a05c	-0.048492774
24	0x3ec53c02	0.38522345
25	0xbeadc9a6	-0.33942908
26	0x3d72c959	0.05927405
27	0x3dee3bf9	0.116325326
28	0xbe4c0f1e	-0.19927642
29	0x3d54d5bb	0.05196164
30	0xbd21ac70	-0.03947109
31	0xbdb4c57c	-0.0882673
32	0x3f1bef22	0.6091176
33	0xbdd25284	-0.10269645
34	0xbcb21a27	-0.021740986
35	0x3d78fc2e	0.060787372
36	0xbeb481f0	-0.35255384
37	0xbd834a5b	-0.064106666
38	0x3d4f9aea	0.050684847
39	0xbd4844fe	-0.04889392
40	0x3ec4e2c3	0.38454255
41	0xbefbd005	-0.49182144
42	0x3d5dbb75	0.05413385
43	0x3e64d86a	0.2234818
44	0xbf28a03f	-0.65869516
45	0x3f446612	0.76718247
46	0xbd000cbf	-0.031262156
47	0x3dc57706	0.096418425
48	0xbe37904f	-0.17926143
49	0x3d262f1f	0.040572282
50	0xbcf7d95e	-0.030255016
51	0xbd48c8d3	-0.049019646
52	0x3f068919	0.52552944
53	0x3e3699b4	0.1783207
54	0x3d3977fa	0.045280434
55	0x3c8acba4	0.016942807
56	0xbeaabbd3	-0.33346424
57	0xbca24b45	-0.019811282
58	0xbd052e27	-0.032514717
59	0x3c07ba0d	0.008284104
60	0x3ecf8a00	0.40534973
61	0x3e89dc0e	0.269257
62	0x3c9ad982	0.018902544
63	0xbcc159df	-0.023602424
64	0xbea4ecd3	-0.32211933
65	0x3e0b6b00	0.13615036
66	0xbda4473e	-0.08021401
67	0x3d83eb4c	0.06441364
68	0x3e3591a8	0.17731345
69	0x3ea78645	0.32719627
70	0x3db1d3a8	0.08682948
71	0x3bb6414b	0.0055619827
72	0x3e94ee4d	0.2908806
73	0xbdec8142	-0.115480915
74	0x3d9ddd5b	0.07708236
75	0x3ea390e5	0.31946483
76	0x3c44e8ea	0.012018422
77	0xbf4018b6	-0.75037706
78	0x3d3588cd	0.044319917
79	0x3e9ec35a	0.31008416
80	0x3dfd89e7	0.123798184
81	0x3da11631	0.07865561
82	0xbd2d772b	-0.042349976
83	0xbe0b4fb0	-0.13604617
84	0x3e727428	0.23677123
85	0x3d19e9ac	0.037576362
86	0xbe0c5844	-0.13705546
87	0xbe16adde	-0.14714763
88	0x3e80e68e	0.251759
89	0x3db4c1b8	0.088260114
90	0xbd5d4f80	-0.054030895
91	0xbd92c02b	-0.071655594
92	0x3db83262	0.08993985
93	0x3ec1d874	0.37860453
94	0xbcd36fe3	-0.025810188
95	0xbca0c4a7	-0.019625021
96	0x3db67f0e	0.089109525
97	0x3f88059c	1.0626712
98	0xbcd8203d	-0.02638256
99	0x3daf2705	0.08552364
100	0x3f113cb7	0.5673327
101	0x3d9c268d	0.076245405
102	0x3cbf2928	0.023335055
103	0x3c5fe6d9	0.013665878
104	0x3e05fe31	0.13085248
105	0x3f726b98	0.94695425
106	0x3d1a260a	0.037633933
107	0xbd71cee6	-0.059035204
108	0x3ebf889f	0.3740892
109	0xbec1da09	-0.3786166
110	0x3d9f7282	0.077855125
111	0xbd091566	-0.033467673
112	0x3e493180	0.19647789
113	0x3f57c100	0.8427887
114	0x3d9bf2c6	0.07614665
115	0x3d7617a5	0.060081143
116	0x3e5e616d	0.21716852
117	0x3e5b85e5	0.21437795
118	0xbda8e0f9	-0.08246035
119	0x3d33ba9f	0.043879148
120	0x3dc00a63	0.09376981
121	0x3e5e067e	0.21682164
122	0xbbf235a3	-0.007391648
123	0x3d88618e	0.06659232
124	0x3ed62423	0.41824445
125	0xbeaba766	-0.33526152
126	0x3d366836	0.044532977
127	0x3dcc8816	0.09986894
128	0x3d6f6a4f	0.058450993
129	0x3d8f0ba3	0.069846414
130	0x3c9ed0bd	0.019386644
131	0xbcad7832	-0.021175478
132	0x3f1116fc	0.56675696
133	0xbf1c416a	-0.61037314
134	0x3b462049	0.0030231646
135	0x3dca7594	0.098857075
136	0xbc9d1ab1	-0.019177767
137	0x3ea4ced1	0.32189038
138	0xbe1750d3	-0.14776926
139	0x3c85c5f8	0.01632975
140	0xbe358788	-0.17727482
141	0x3c69497c	0.014238711
142	0xbdab1f6a	-0.08355601
143	0x3d10c764	0.035346404
144	0xbdafe1ac	-0.08587965
145	0x3e943a8c	0.28950918
146	0xbd38fae3	-0.04516114
147	0x3ceccb2e	0.028905477
148	0xbe9a4154	-0.30127966
149	0x3e5a052b	0.21291034
150	0x3d59c869	0.05316964
151	0xbbb87140	-0.005628735
152	0xbd8f490d	-0.06996355
153	0x3efa2f3f	0.4886417
154	0xbb2040e4	-0.002445274
155	0x3cc11d18	0.023573443
156	0xbd43674f	-0.047705945
157	0x3cc7e781	0.024402382
158	0x3cdc51ee	0.026894536
159	0xbb5eec41	-0.003401533
160	0xbe18ba7c	-0.14914888
161	0x3f00d8f9	0.50331074
162	0xbd383a70	-0.044977605
163	0x3d8acd8c	0.06777486
164	0x3efca105	0.49341598
165	0xc00ebcf7	-2.2302835
166	0xbd178198	-0.036988825
167	0x3d88a32c	0.066717476
168	0x3f01c3b6	0.50689256
169	0x3d99ac77	0.07503598
170	0x3d4d035b	0.05005203
171	0xbc01bd20	-0.007918626
172	0xbc049840	-0.00809294
173	0x3ce73433	0.028223133
174	0xbd422936	-0.047402583
175	0x3c3d905c	0.0115700625
176	0x3f1243b6	0.5713457
177	0x3d5a508c	0.05329947
178	0xbc080834	-0.008302737
179	0x3de461a7	0.11151438
180	0xbf102cae	-0.56318176
181	0xbdf6ea90	-0.12056458
182	0x3d101ca5	0.035183568
183	0xbda1cf01	-0.07900811
184	0x3f19bc22	0.6005269
185	0x3cb2d7fa	0.021831501
186	0x3cf6e183	0.03013683
187	0x3d298e23	0.041395318
188	0xbf84f07e	-1.0385892
189	0xbe256911	-0.16153361
190	0x3bd0f24e	0.006376541
191	0xbd87e74d	-0.06635914
192	0x3ee05e30	0.4382186
193	0xbf38d926	-0.7220634
194	0x3db8a264	0.090153486
195	0xbdb89c85	-0.09014229
196	0x3e6a392f	0.22873376
197	0x3f6d4188	0.9267812
198	0x3e20d18f	0.1570494
199	0xbd8b6b27	-0.06807547
200	0x3ec299b3	0.38007888
201	0xbf1f5071	-0.6223212
202	0x3e200c92	0.15629795
203	0x3d8dd24c	0.069248766
204	0x3e606884	0.2191487
205	0xbdbcfc74	-0.09227839
206	0x3c855694	0.016276635
207	0x3e0a6712	0.1351588
208	0x3ebbf5c3	0.3671094
209	0xbf046779	-0.51720387
210	0xbd82da5e	-0.063893065
211	0xbd913d1f	-0.07091736
212	0x3e656ba9	0.2240435
213	0xbf05c862	-0.52258885
214	0x3d8c6a71	0.068562396
215	0xbd8d4098	-0.06897086
216	0x3f8d6059	1.1045028
217	0x3e35d71d	0.1775784
218	0xbc2b4ea8	-0.010455765
219	0x3d2596a0	0.04042685
220	0xbdbe882d	-0.09303317
221	0xbe49aa3f	-0.1969385
222	0xbd83ead4	-0.06441274
223	0x3dd3c4a9	0.10340244
224	0x3eec6e70	0.46178007
225	0xbe8b59f7	-0.27217075
226	0xbd221efd	-0.039580334
227	0x3dd337fb	0.10313412
228	0x3f0f4b0e	0.559739
229	0x3e04d8d1	0.12973334
230	0xbd353c37	-0.04424688
231	0x3b880a87	0.0041516456
232	0xbd57fab0	-0.05272931
233	0xbf0e6a22	-0.55630696
234	0x3d74408b	0.059631865
235	0x3d8615e7	0.06547146
236	0x3f05aacf	0.5221376
237	0x3f12de9a	0.57370913
238	0xbc9592b5	-0.018258432
239	0xbdf3c71e	-0.11903213
240	0xbc90c071	-0.017669888
241	0xbebc79b4	-0.36811602
242	0x3dda0862	0.1064613
243	0xbd1a9230	-0.03773707
244	0x3dce3e7d	0.100705124
245	0x3f496803	0.78674334
246	0xbdc7a22c	-0.09747729
247	0xbda06d38	-0.07833332
248	0xbc5f9623	-0.013646635
249	0xbe9b9de9	-0.30393913
250	0x3bbdcec7	0.005792472
251	0xbd5718b8	-0.052513808
252	0x3c030aa7	0.007998145
253	0x3f63ee25	0.89035255
254	0x3ac12819	0.0014736681
255	0xbd7ef532	-0.062245555

fcs1.bias f4 [64]
0	0x3e390e8d	0.18071957
1	0xbd372e28	-0.044721752
2	0xbe13dfe3	-0.14440875
3	0xbee5afca	-0.4486068
4	0xbeedadf9	-0.46421793
5	0xbeb09366	-0.34487456
6	0x3e73e61b	0.23818247
7	0xbed03c3a	-0.4067095
8	0x3e8df133	0.27723083
9	0x3e551674	0.20809346
10	0xbe7055db	-0.23470251
11	0xbde8ad8f	-0.11361229
12	0xbeedcd04	-0.46445477
13	0xbe88995d	-0.26679507
14	0xbed8d738	-0.423517
15	0x3e9c4c3e	0.30526918
16	0xbe0448a9	-0.12918343
17	0x3c873a1e	0.016507205
18	0xbe56b615	-0.20967896
19	0xbbe0f56e	-0.006865195
20	0x3e3033d3	0.1720727
21	0xbe74574a	-0.23861423
22	0xbbc6d340	-0.0060676634
23	0xbdf62b39	-0.12019963
24	0x3cc4a86a	0.024006087
25	0x3e90473a	0.28179342
26	0xbe3a882a	-0.18216005
27	0xbe74bf04	-0.23900992
28	0x3d6e0ef3	0.058119725
29	0xbdc171f2	-0.094455615
30	0x3e803ea3	0.25047788
31	0xbf0e7a55	-0.55655414
32	0x3f0dba18	0.5536208
33	0xbd284750	-0.041083634
34	0xbe899b4a	-0.2687629
35	0xbebe4b13	-0.37166652
36	0xbf03102f	-0.5119657
37	0xbdf9ebd9	-0.122031875
38	0xbe532939	-0.20621194
39	0x3e6b8133	0.22998504
40	0xbe900e6c	-0.28136003
41	0xbe232add	-0.1593432
42	0xbe31befe	-0.17358014
43	0xbea3c7d9	-0.3198841
44	0xbc18ab29	-0.0093181515
45	0xbe471142	-0.19440177
46	0xbf4817c7	-0.7816128
47	0xbf55dd59	-0.83540875
48	0x3c03eaf2	0.008051621
49	0x3d806154	0.06268564
50	0xbec10bc8	-0.377043
51	0xbdd0b1ce	-0.101901636
52	0x3e073e17	0.13207279
53	0xbf4ba1f2	-0.79543984
54	0x3e32c3fd	0.17457576
55	0xbed18deb	-0.40928587
56	0xbf0efb52	-0.55852234
57	0xbd51fd3d	-0.051266897
58	0x3eb1f81a	0.347596
59	0xbdef1c61	-0.11675335
60	0x3ea2e7ca	0.31817466
61	0xbedee3cc	-0.4353317
62	0xbe6761f1	-0.22595955
63	0xbf391247	-0.72293514

fc2.weight f4 [64, 66]
0	0xbdff8f9a	-0.12478562
1	0xbe4620e1	-0.1934848
2	0xbd9031e6	-0.07040767
3	0x3d6e666e	0.058203153
4	0x3d505de5	0.050870795
5	0x3cb17e34	0.021666624
6	0xbdce2cb5	-0.10067121
7	0xbe9bcd3e	-0.30430025
8	0x3d24d643	0.0402434
9	0xbea3dcc2	-0.32004362
10	0xbe6a2dfe	-0.22869107
11	0xbe1d5991	-0.15366198
12	0x3df84a9d	0.12123606
13	0xbd84f97b	-0.06492897
14	0xbec2636d	-0.3796648
15	0xbf268f33	-0.65062255
16	0xbda94212	-0.08264555
17	0x3dba4abf	0.09096288
18	0x3ce6b682	0.028163198
19	0xbe0c17e9	-0.13680996
20	0xbca03d24	-0.019560404
21	0x3bde08f4	0.0067759696
22	0xbecc6bd1	-0.39926007
23	0xbd64854b	-0.05579118
24	0xbd893dd1	-0.06701244
25	0x3eb5f129	0.35535553
26	0xbe09f0e9	-0.13470806
27	0x3d2762c3	0.04086567
28	0xbd9007ff	-0.07032775
29	0xbe4811f7	-0.19538103
30	0xbdccd5c9	-0.10001714
31	0xbdf85ab5	-0.12126676
32	0xbe78cee9	-0.2429768
33	0x3ce999c9	0.028515713
34	0xbe57156f	-0.2100427
35	0x3d88df71	0.06683243
36	0xbeab8b01	-0.3350449
37	0x3dae9496	0.08524434
38	0x3cb6e8d9	0.022327827
39	0xbd7134d6	-0.05888828
40	0xbdaa4cd4	-0.08315435
41	0x3cc4c183	0.024018055
42	0x3dd9c1bc	0.10632655
43	0xbe1f2429	-0.15541138
44	0xbcde7f3c	-0.02716028
45	0xbea81e1f	-0.3283548
46	0xbca708bd	-0.020389909
47	0x3eac1182	0.33607107
48	0x3eb340fb	0.35010514
49	0x3d385cee	0.0450105
50	0xbe5b51d9	-0.21417941
51	0xbeb409a4	-0.35163605
52	0xbf46f967	-0.7772431
53	0xbda1efc2	-0.07907058
54	0x3cc6a580	0.024248838
55	0xbf38f555	-0.72249347
56	0x3b30a286	0.002695234
57	0xbd41eb9b	-0.04734383
58	0xbf14165b	-0.5784661
59	0xbd051489	-0.032490287
60	0xbf522668	-0.82089853
61	0xbeee55c2	-0.46549803
62	0x3e468c9d	0.19389577
63	0x3d715c0d	0.058925677
64	0x3e0a4da2	0.13506177
65	0xbd1ceb4f	-0.038310345
66	0xbd18fa56	-0.037348114
67	0xbed85caa	-0.42258197
68	0x3df8d77d	0.12150476
69	0x3c9e0909	0.019291418
70	0xbe5067af	-0.20352052
71	0x3e6af7b7	0.22946058
72	0xbe67004d	-0.22558708
73	0x3dbc72fe	0.092016205
74	0x3dd0d9d4	0.101977974
75	0x3e0b9885	0.136324
76	0xbf757aaf	-0.95890325
77	0x3d9ab3b9	0.075538106
78	0x3d302251	0.043001477
79	0xbde3508b	-0.11099347
80	0xbe2e79ae	-0.17038605
81	0xbf04c6ca	-0.5186583
82	0x3dfb6de0	0.12276816
83	0xbfdfd96b	-1.7488226
84	0xbd356991	-0.04429013
85	0xbd872ee6	-0.06600742
86	0x3e4ced7d	0.2001247
87	0xbe6c3ed1	-0.23070838
88	0xbfa4310b	-1.2827467
89	0x3de8c525	0.11365727
90	0xbd3629c3	-0.04447342
91	0xbea24441	-0.316927
92	0xbee9508c	-0.45569265
93	0xbd9ce698	-0.0766117
94	0xbeb798be	-0.3585872
95	0xbee9d1cb	-0.45667872
96	0x3e29d2f4	0.16584378
97	0x3e3b92d8	0.18317735
98	0xbdabe501	-0.083932884
99	0xbe147c27	-0.14500485
100	0xbe5a8405	-0.21339424
101	0xbeac6ece	-0.33678287
102	0xbf37cef8	-0.71800184
103	0xbe3d5b38	-0.18491828
104	0x3e363069	0.17791905
105	0x3d97fe43	0.074215434
106	0x3d83b8e0	0.064317465
107	0xbca61200	-0.020272255
108	0x3e3d6fcc	0.18499678
109	0xbe30fb5d	-0.17283387
110	0xbf0635f2	-0.52426064
111	0xbd6d68e4	-0.05796136
112	0xbce93ec5	-0.028472314
113	0xbdec051e	-0.115244135
114	0xbed3e50a	-0.4138568
115	0x3ec1f745	0.37883964
116	0xbe934466	-0.2876312
117	0xbf08a8d6	-0.53382623
118	0xbe6ccebc	-0.23125738
119	0xbeca13ee	-0.3946833
120	0x3d445312	0.047930785
121	0xbe8cbe5e	-0.2748899
122	0x3d47e977	0.048806634
123	0xbd9cae81	-0.076504715
124	0x3ecc3d4e	0.39890522
125	0xbebdef38	-0.37096572
126	0xbea90f66	-0.3301956
127	0xbd8932bd	-0.06699131
128	0x3e51144a	0.20417896
129	0xbea68307	-0.3252184
130	0xbecff0bb	-0.4061335
131	0xbed04653	-0.40678653
132	0xbd6b8bee	-0.057506494
133	0xbd8e9d3c	-0.06963584
134	0xbe07184d	-0.13192864
135	0x3ca08c61	0.019598188
136	0xbd6106a1	-0.054937962
137	0xbda41b44	-0.08013013
138	0xbda7a1b0	-0.08185136
139	0x3d54590c	0.051842734
140	0xbdabe47e	-0.08393191
141	0xbc3f5f50	-0.011680439
142	0xbe0a864c	-0.13527793
143	0x3b8ec260	0.0043566674
144	0xbd5db2b7	-0.054125514
145	0xbddd3f1a	-0.10803051
146	0xbd8233b2	-0.06357516
147	0xbdb4e3b5	-0.08832494
148	0xbe4d86ce	-0.20070955
149	0xbddf4425	-0.109016694
150	0xbdf8e8a6	-0.12153749
151	0x3c3929a7	0.011301435
152	0xbd883429	-0.06650574
153	0xbd5fe6c0	-0.05466342
154	0xbe2559ea	-0.1614758
155	0xbda6465c	-0.08118889
156	0xbd0ef99b	-0.03490601
157	0xbe40e5d3	-0.18837671
158	0xbe0876c8	-0.13326561
159	0x3cc7cbb5	0.024389127
160	0xbddccf4c	-0.10781726
161	0xbe173bf3	-0.14768963
162	0xbe2da0fb	-0.1695594
163	0xbc8364f2	-0.016039345
164	0x3c08b233	0.008343267
165	0xbe15dfac	-0.14636105
166	0x3d319bab	0.043361347
167	0x3cb7fcb0	0.022459358
168	0x3d0851ab	0.03328101
169	0xbe188343	-0.14893822
170	0x3c83f7e5	0.016109416
171	0x3ca22ba7	0.019796206
172	0xbd292dcb	-0.041303437
173	0xbd5922f2	-0.053011842
174	0xbd6c6899	-0.05771694
175	0xbc0734d6	-0.008252343
176	0xbda25cfc	-0.079278916
177	0xbd6a6a39	-0.057230208
178	0xbe1ae253	-0.15125398
179	0x3bd55f37	0.0065115946
180	0xbd8c11ad	-0.06839309
181	0xbc47b0ee	-0.012188179
182	0xbd93b9cc	-0.07213172
183	0x3c4e4170	0.012588844
184	0x3cfcca3c	0.030858152
185	0xbccef3fa	-0.025262821
186	0xbdb4494f	-0.08803045
187	0xbe13e1ac	-0.14441556
188	0xbbff5dbf	-0.007793158
189	0x3cb659ff	0.02225971
190	0x3db2c91e	0.08729766
191	0xbe07a479	-0.13246335
192	0xbde59b02	-0.11211206
193	0xbd1b47c1	-0.037910227
194	0x3bdd69e3	0.0067570074
195	0xbe51be9e	-0.20482871
196	0x3c5b8dd8	0.013400517
197	0x3d6ef280	0.058336735
198	0xbe2dd296	-0.16974863
199	0xbe827d39	-0.25486162
200	0xbe8f16bd	-0.27947035
201	0xbdcdd550	-0.10050452
202	0xbdf1da5e	-0.11809228
203	0xbe7d6116	-0.24744067
204	0x3d9e6248	0.077335894
205	0xbd70b93e	-0.05877041
206	0x3c1a09c4	0.009401742
207	0x3d921fb9	0.07134957
208	0xbe0abb99	-0.13548125
209	0xbde869d8	-0.11348313
210	0xbe2e10f2	-0.16998652
211	0xbddf3816	-0.108993694
212	0xbe1da69f	-0.15395592
213	0xbd439d54	-0.04775746
214	0xbd4ee19b	-0.050508123
215	0xbe8aafae	-0.27087158
216	0xbddd3d61	-0.10802723
217	0xbe6a73a0	-0.2289567
218	0xbd12d10e	-0.0358439
219	0xbd6d7515	-0.057972986
220	0xbd3a045d	-0.045414317
221	0xbe36dda0	-0.1785798
222	0xbe376249	-0.17908587
223	0xbe9198e0	-0.28436947
224	0xba1834c4	-0.00058062025
225	0x3dc6a685	0.0969973
226	0xbd3e368a	-0.04643873
227	0xbdd7e4e4	-0.10541704
228	0xbe12487f	-0.14285468
229	0x3d84a35c	0.06476471
230	0xbe5a6f32	-0.2133148
231	0xbe768562	-0.24074319
232	0xbdb63053	-0.08895936
233	0xbd3e33e8	-0.04643622
234	0xbdd71ef1	-0.105039485
235	0xbc56b651	-0.013104991
236	0xbd9929bd	-0.07478664
237	0xbe4dc688	-0.20095265
238	0x3e09c737	0.134549
239	0xbd4b0dd7	-0.049573746
240	0xbe05039b	-0.12989657
241	0xbe0b349b	-0.13594286
242	0x3baf0f00	0.0053423643
243	0xbd33fd42	-0.043942697
244	0xbd57ee1a	-0.052717306
245	0xbdf4e225	-0.11957196
246	0xbe888041	-0.2666035
247	0xbd966ec4	-0.073453456
248	0x3bcc6337	0.0062374133
249	0xbe2496b1	-0.16073109
250	0xbce1b609	-0.027552621
251	0xbd377677	-0.04479071
252	0xbe29e7c3	-0.16592316
253	0x3dec7c31	0.11547125
254	0x3d4badab	0.04972617
255	0xbcfca131	-0.03083858

fc2.bias f4 [64]
0	0xbedb1762	-0.42791277
1	0xbe5c5186	-0.21515474
2	0xbe704406	-0.23463449
3	0xbe26f5be	-0.1630468
4	0xbe5e96ba	-0.21737185
5	0xbe333030	-0.17498851
6	0xbe505ff0	-0.20349097
7	0x3c87c0e9	0.016571479
8	0xbe64b97f	-0.22336386
9	0x3e41d795	0.18929894
10	0x3d1871bf	0.03721785
11	0x3e1cccb7	0.15312468
12	0x3d7314ad	0.05934589
13	0xbe683d99	-0.22679748
14	0xbf404fb4	-0.7512162
15	0x3ced17de	0.028942045
16	0x3e60ac30	0.21940684
17	0xbec3fddb	-0.38279614
18	0x3d8175db	0.06321307
19	0xbdd39167	-0.10330468
20	0xbe317d7a	-0.17333022
21	0x3d6c6e05	0.05772211
22	0xbf035856	-0.51306665
23	0x3eee8db1	0.46592477
24	0xbde0c7d4	-0.10975614
25	0xbe8c8084	-0.274418
26	0xbd3cb57b	-0.04607151
27	0xbda13ed0	-0.07873309
28	0x3d30917d	0.0431075
29	0xbf036b91	-0.5133601
30	0xbe8c1f26	-0.27367514
31	0x3d57eeeb	0.052718084
32	0xbda17a7e	-0.07884692
33	0xbea2404d	-0.31689683
34	0xbe83a874	-0.25714457
35	0x3eff7a1e	0.49897856
36	0xbf0cf040	-0.5505409
37	0xbe6a5b2b	-0.2288634
38	0x3eaf8855	0.342837
39	0x3eb395ff	0.35075375
40	0x3de6adc0	0.11263609
41	0xbfc10533	-1.5079712
42	0xbeea0554	-0.4570719
43	0xbd90a123	-0.070619844
44	0xbedb798f	-0.4286618
45	0x3e4b545e	0.19856402
46	0xbe45e383	-0.1932507
47	0xbd4cf876	-0.05004164
48	0x3e9a976c	0.3019365
49	0xbee91325	-0.4552242
50	0x3e2939a8	0.165259
51	0xbe101823	-0.14071707
52	0xbe83be12	-0.2573095
53	0xbd3ee5eb	-0.046605986
54	0x3e2ee202	0.17078403
55	0x3e0fc1e3	0.14038806
56	0xbecc4a86	-0.39900607
57	0x3da85f49	0.08221299
58	0xbd131d36	-0.03591653
59	0xbe4e8750	-0.20168805
60	0xbda3e15f	-0.080019705
61	0xbf09761c	-0.53695846
62	0xbdb9b485	-0.090676345
63	0xbc936441	-0.01799214

fc3.weight f4 [1, 64]
0	0xbd700370	-0.05859703
1	0x3c059fd1	0.008155779
2	0x3c7f76b9	0.0155922705
3	0x3cef95a2	0.029246155
4	0xbc403fc2	-0.011733951
5	0xbc25cf20	-0.010120183
6	0xb94a8b2b	-0.00019316065
7	0xbd200839	-0.03907034
8	0xbc405f51	-0.011741475
9	0xbda52303	-0.080633186
10	0x3d91897b	0.071063004
11	0x3ce4b807	0.027919782
12	0x3d50b355	0.050952274
13	0xbc622708	-0.013803251
14	0xbd41fb7a	-0.047358967
15	0x3c9bc355	0.01901404
16	0xbd5536d2	-0.052054234
17	0xbd8b2674	-0.06794444
18	0xbd05cead	-0.032667805
19	0x3c089ef2	0.008338677
20	0xbc02960b	-0.007970343
21	0x3cd659a7	0.026165796
22	0xbc1fc16a	-0.009750703
23	0x3c52cf78	0.012866847
24	0x3b18c13e	0.002330854
25	0xbd3a4a74	-0.04548116
26	0x3de1ef10	0.11031926
27	0x3ce5db6e	0.028058734
28	0x3d92c03d	0.07165573
29	0xbc8488bb	-0.01617848
30	0xbdb44741	-0.08802653
31	0xbcf54405	-0.02993966
32	0x3da56cd3	0.08077397
33	0xbca9930a	-0.020699997
34	0xbc97d41b	-0.018533757
35	0x3cacdbbb	0.02110087
36	0xbd937d49	-0.072016306
37	0xbbb7f184	-0.0056135077
38	0x3d0603c2	0.032718427
39	0x3d59200b	0.053009074
40	0xbb5df355	-0.003386696
41	0x3dd69911	0.10478414
42	0xbc211765	-0.009832238
43	0x3c245fee	0.010032637
44	0xbd9009a5	-0.070330895
45	0x3d3ab173	0.045579385
46	0xbdd5306a	-0.10409625
47	0xbcb974aa	-0.022638638
48	0xbcf76179	-0.030197846
49	0xbc28cb59	-0.010302388
50	0xbd30a1ad	-0.043122936
51	0x3c8b0148	0.016968384
52	0x3d6c3c25	0.057674546
53	0x3c00b019	0.007854485
54	0xbd498588	-0.04919961
55	0x3e039398	0.12849271
56	0xbd215f73	-0.039397668
57	0xbd9427a5	-0.07234124
58	0x3c2452eb	0.010029535
59	0xbd32c1db	-0.043641906
60	0x3baa87a8	0.0052041598
61	0xbd2b904d	-0.041885663
62	0x3cbee83b	0.023304095
63	0xbdc56129	-0.096376725
