p3_collab_compet/model/p3_ddpg_agent1_actor.pth (torch_old, 24566 bytes, 6 tensors)

fc1.weight f4 [64, 24]
0	0xbd08567d	-0.033285607
1	0xbe156ff5	-0.1459349
2	0xbabda923	-0.0014469962
3	0xbdd950e0	-0.10611129
4	0x3f7741a6	0.96584547
5	0xbeb9c9d8	-0.36286807
6	0xbe30a1d4	-0.17249233
7	0xbe034fba	-0.12823382
8	0x3d23229b	0.039827924
9	0x3d9ab9c2	0.07554962
10	0xbdde82f9	-0.10864825
11	0xbc16ace0	-0.00919649
12	0x3f92ca7e	1.1468046
13	0xbe3808c6	-0.17972097
14	0xbe0bba3f	-0.13645266
15	0x3dffa848	0.12483269
16	0x3e35b549	0.17744936
17	0x3ddafd36	0.106928274
18	0x3da4f129	0.0805381
19	0xbe58fbfd	-0.21189876
20	0x3f6bc5c5	0.9209865
21	0x3f0e7273	0.55643386
22	0x3de4b78f	0.111678235
23	0xbe84da39	-0.2594774
24	0xbd75b875	-0.059990365
25	0x3ea4d4c8	0.3219359
26	0x3cce959f	0.02521783
27	0x3cc62e3f	0.024191974
28	0x3d4e29d7	0.05033287
29	0xbefba153	-0.49146518
30	0x3d165119	0.036698435
31	0x3d0ba7c5	0.034095544
32	0x3e2e21f6	0.17005143
33	0x3f11b337	0.56914085
34	0xbd3996d2	-0.04530985
35	0x3df02dae	0.11727463
36	0xbf14e122	-0.58156025
37	0xbf17df1f	-0.5932483
38	0x3d947912	0.07249655
39	0x3da800b2	0.082032576
40	0x3eabb0a2	0.33533198
41	0x3f43e547	0.76521724
42	0x3d876111	0.06610311
43	0x3dc10bad	0.09426055
44	0xbf98442b	-1.1895803
45	0xbf38b1f0	-0.7214651
46	0xbd4049f8	-0.046945542
47	0x3d76bde4	0.060239688
48	0x3ec4b4ba	0.38419133
49	0xbf2fefc3	-0.6872522
50	0x3dd0b98a	0.10191639
51	0xbf0314f5	-0.5120385
52	0x3eb61e55	0.35570017
53	0x3efa8822	0.48931986
54	0x3d4eca19	0.050485704
55	0xbf023ddf	-0.5087566
56	0x3e7fa8d4	0.24966747
57	0xbf2473cc	-0.6423919
58	0xbe8094b9	-0.25113466
59	0xbeddb392	-0.43301064
60	0x3ead6d5f	0.33872506
61	0x3d3c1730	0.04592055
62	0xbe3f054c	-0.18654364
63	0xbeaa88b4	-0.3330742
64	0x3ec4fb67	0.38473055
65	0xbf02925e	-0.5100459
66	0xbda45aad	-0.080251075
67	0x3e74fb8b	0.23924081
68	0x3e9f7770	0.3114581
69	0xbf3a40a9	-0.72754914
70	0x3d973eda	0.07385035
71	0x3e86f036	0.2635514
72	0x3e3cf556	0.18452963
73	0xbf3b383a	-0.7313267
74	0xbc1fb266	-0.009747123
75	0x3e4ed07b	0.20196716
76	0x3dc35b02	0.09538843
77	0x3f72aacf	0.94791883
78	0xbe1acfcc	-0.1511833
79	0xbc9b5dd5	-0.018965641
80	0x3efe159b	0.4962586
81	0xbf33bc3e	-0.7020911
82	0xbc8c4385	-0.01712204
83	0xbee7d373	-0.4527851
84	0xbed61922	-0.4181605
85	0x3ef28b36	0.47371835
86	0x3bd49cc3	0.006488414
87	0xbe96551f	-0.29361817
88	0x3f019bfa	0.50628626
89	0xbf016d89	-0.5055776
90	0x3e03a415	0.12855561
91	0x3ee42ee8	0.44567037
92	0xbf3502f8	-0.70707655
93	0xbe7329dd	-0.23746438
94	0xbd9bb918	-0.07603663
95	0x3f00a6ee	0.50254714
96	0x3e88c55a	0.26713067
97	0x3fba7fe3	1.4570278
98	0x3cdcf50d	0.026972318
99	0x3f09a5ed	0.5376881
100	0xbc1e4361	-0.009659619
101	0xbf50e1d0	-0.8159456
102	0xbda96316	-0.08270852
103	0x3f0c671a	0.5484482
104	0x3dfbde90	0.1229831
105	0x3fa683d1	1.3008977
106	0x3c40c71b	0.01176622
107	0xbec97b3b	-0.3935183
108	0x3d52e857	0.051491108
109	0xbe223974	-0.15842229
110	0xbdec2145	-0.11529783
111	0xbeb539fc	-0.353958
112	0x3e491b63	0.19639353
113	0x3f441d99	0.7660766
114	0xbd69e31e	-0.05710136
115	0xbf72ebf6	-0.948913
116	0x3eb5d909	0.35517147
117	0x3fa387b4	1.2775788
118	0x3c11344d	0.008862567
119	0xbf8c6d5a	-1.0970871
120	0xbe0c1bf9	-0.13682546
121	0x3e2d36ef	0.16915487
122	0x3c568c23	0.013094935
123	0xbe5425b8	-0.20717514
124	0x40001f76	2.0019202
125	0x3edf7435	0.43643346
126	0xbc99ef5c	-0.018790893
127	0xbe8e548a	-0.27798873
128	0xbe6f82e7	-0.23389779
129	0xbe0ff6c3	-0.14058976
130	0xbbd86399	-0.00660367
131	0xbd399fc9	-0.0453184
132	0x3f174485	0.5908893
133	0x3f31c77a	0.69445
134	0xbd860d7e	-0.06545542
135	0x3ac6982f	0.0015151555
136	0xbe1a4404	-0.15065008
137	0x3d51bc45	0.05120494
138	0xbb5287b2	-0.0032124338
139	0xbb4ccdd4	-0.0031250613
140	0xbe2ab24b	-0.16669576
141	0x3f1336f5	0.5750573
142	0xbc4e577c	-0.0125941
143	0x3cd7aab7	0.02632652
144	0x3f3a96d5	0.728864
145	0xbe55484b	-0.20828359
146	0xbb9f1c64	-0.0048556793
147	0x3e86f967	0.26362154
148	0x3f6133db	0.8796975
149	0xbe672696	-0.22573313
150	0xbc82b7ed	-0.015956843
151	0x3e8d3174	0.27576792
152	0x3f49558e	0.7864617
153	0xbe682b43	-0.22672753
154	0xbdbb5f96	-0.09149091
155	0x3efd12b1	0.49428323
156	0x3e93f4cd	0.28897706
157	0xbdcbbbc5	-0.099479236
158	0xbd21a0d0	-0.039460003
159	0x3ed28029	0.41113403
160	0x3ee6a1ad	0.45045224
161	0xbdcfae92	-0.101407185
162	0xbd54809b	-0.05188046
163	0x3e989ad0	0.29805613
164	0xbd351162	-0.04420603
165	0x3c04b28f	0.008099212
166	0xbdfd6a41	-0.12373782
167	0x3e2d8bfe	0.16947934
168	0x3da1e2cb	0.079045855
169	0x3fb4c97d	1.4123989
170	0xbd9de604	-0.077098876
171	0x3e7687d5	0.24075253
172	0xbd8b3903	-0.067979835
173	0xbf091911	-0.53553873
174	0xbd531511	-0.051533762
175	0x3e969bb2	0.2941566
176	0x3c794bea	0.015215853
177	0x3f969386	1.176377
178	0xbd85bd60	-0.06530261
179	0xbf396a80	-0.7242813
180	0x3e1ece08	0.15508282
181	0xbe95c7cf	-0.29254004
182	0xbda6eaf3	-0.08150282
183	0xbf5038db	-0.81336755
184	0x3eaa826b	0.33302626
185	0x3f93be44	1.154244
186	0xbe13ebce	-0.14445421
187	0x3e419fb2	0.18908575
188	0x3ea5af36	0.32360238
189	0x3d743e1f	0.059629556
190	0xbde3b1b4	-0.111178786
191	0x3d30e886	0.0431905
192	0xbea40fbf	-0.32043263
193	0x3eebd5e8	0.46061635
194	0xbd62fe6c	-0.055418417
195	0x3db9f566	0.09080009
196	0x3ff7a400	1.9346924
197	0x3e9d03c4	0.30666935
198	0x3d84550e	0.064615354
199	0xbe12568a	-0.14290825
200	0xbec6c6f8	-0.38823676
201	0x3d124a54	0.035715416
202	0x3d06df67	0.032927897
203	0x3cc83990	0.02444151
204	0x3ee8b32d	0.454492
205	0x3ec3382b	0.3812879
206	0x3d54c47a	0.051945187
207	0xbe06e316	-0.13172564
208	0xbe41c91f	-0.18924378
209	0x3ed779ae	0.42085022
210	0x3c057386	0.008145219
211	0xbe60b530	-0.21944118
212	0xbf0ca0c9	-0.5493284
213	0x3dc4fae6	0.096181676
214	0xbcd82c88	-0.026388422
215	0xbdeeb680	-0.11655903
216	0xbe2cc8df	-0.16873501
217	0x3ec50748	0.38482118
218	0x3ce49825	0.02790458
219	0xbe3f8fc8	-0.18707192
220	0xbe9ef5d0	-0.31046915
221	0x3d1e6cf6	0.038678132
222	0x3a73a1a4	0.00092938007
223	0xbdca12fd	-0.09866903
224	0xbe23e4c9	-0.16005243
225	0x3ea4c843	0.32184038
226	0xbd853641	-0.06504489
227	0x3e0c4864	0.1369949
228	0x3d2e01f8	0.042482346
229	0xbf5d51d9	-0.86453015
230	0xbd8760aa	-0.06610234
231	0x3e1500d2	0.14551094
232	0xbe854bf6	-0.26034516
233	0x3f181564	0.5940764
234	0x3d9ba73b	0.07600256
235	0x3ea29fa8	0.31762433
236	0x3e9f3629	0.31096008
237	0xc0172e61	-2.3622057
238	0x3dc39172	0.09549226
239	0x3e8c80f1	0.27442124
240	0x3e99743b	0.2997149
241	0x3eba2cd4	0.36362326
242	0x3d8e929b	0.069615565
243	0xbea38fd0	-0.31945658
244	0x3d2ff695	0.04295977
245	0x3f3f918b	0.74831456
246	0xbdf79d88	-0.120905936
247	0xbe197f50	-0.14989972
248	0x3f0ccbe3	0.54998606
249	0x3f013499	0.5047088
250	0xb9b45034	-0.0003439203
251	0xbef00688	-0.46879983
252	0x3e1009fb	0.14066307
253	0x3f0b4e56	0.54416406
254	0xbddd6304	-0.10809901
255	0xbeb0348e	-0.34415096

fc1.bias f4 [64]
0	0xbd9e84f8	-0.077402055
1	0xbf1de848	-0.6168256
2	0x3bfef975	0.0077812024
3	0x3e36f6c0	0.17867565
4	0xbea81334	-0.3282715
5	0xbd1379e3	-0.036004912
6	0x3dac68ed	0.084184505
7	0xbf1a084a	-0.601689
8	0xbdaaa808	-0.08332831
9	0x3e76e7a3	0.241118
10	0xbed1e14b	-0.40992197
11	0xbdd3c6a8	-0.10340625
12	0xbba4eb06	-0.0050329
13	0xbd36e350	-0.044650376
14	0xbe02722a	-0.12738863
15	0xbe32f79b	-0.17477266
16	0xbe3b0c60	-0.1826644
17	0xbe40829d	-0.18799825
18	0xbeb0f0f4	-0.34558833
19	0xbf49f33e	-0.78886783
20	0xbe3b56cd	-0.1829483
21	0xbeec2722	-0.46123606
22	0xbf13dc74	-0.5775826
23	0x3dd38870	0.10328758
24	0xbdb48457	-0.08814304
25	0x3dea9f6a	0.11456187
26	0x3f47ee0b	0.780976
27	0xbe676073	-0.22595386
28	0xbe4df2e7	-0.20112191
29	0xbe62b0ce	-0.22137758
30	0x3dd03d88	0.10167986
31	0x3d812a79	0.06306929
32	0x3cdfa28f	0.027299194
33	0xbe5d9efb	-0.21642677
34	0xbeeb7295	-0.45985857
35	0x3ccce71b	0.025012543
36	0xbf00da7f	-0.503334
37	0xbd4c08b1	-0.049812976
38	0xbec20436	-0.37893838
39	0x3eca7f65	0.3955032
40	0xbe685c02	-0.22691348
41	0x3c88d8f5	0.016705016
42	0xbf3f3c0f	-0.7470102
43	0xbea4bd1c	-0.3217553
44	0xbe4fd5c5	-0.2029639
45	0xbe6c15a5	-0.23055132
46	0xbeb085cd	-0.34477082
47	0xbea8fba2	-0.3300448
48	0xbf0c732e	-0.5486325
49	0xbe0f9973	-0.1402338
50	0xbeb7a9e4	-0.35871804
51	0xbf26c3a6	-0.65142286
52	0x3e070d81	0.13188745
53	0xbe6fc8ec	-0.2341649
54	0xbf14108a	-0.57837737
55	0x3ddc3da1	0.10753942
56	0xbf1d81d3	-0.6152622
57	0x3ead64ce	0.3386597
58	0xbd229b0f	-0.039698657
59	0xbe21f155	-0.15814717
60	0xbefefd4d	-0.49802628
61	0x3d9dac21	0.076988466
62	0x3e950ac3	0.29109773
63	0x3e045f1f	0.12926911

fc2.weight f4 [64, 64]
0	0xbf2305c7	-0.6368069
1	0x3f0c9296	0.5491117
2	0x3cb606e3	0.02222008
3	0x3e67510a	0.22589508
4	0xbf1de2c0	-0.6167412
5	0xbea3cf1d	-0.31993952
6	0x3e0dfcf9	0.13866033
7	0xbf15e95d	-0.5855921
8	0xbead1fdb	-0.33813366
9	0x3df5c533	0.120005034
10	0x3eaff7e3	0.3436881
11	0xbebb3c22	-0.36569315
12	0xbf0559b3	-0.52089995
13	0xbe82614c	-0.25464857
14	0xbf03e4be	-0.5152091
15	0xbed6a929	-0.41925934
16	0xbef3a907	-0.47589895
17	0x3e4756a1	0.1946664
18	0xbd1d2544	-0.038365617
19	0xbf0e3401	-0.555481
20	0x3f0a9358	0.5413108
21	0xbe850698	-0.25981593
22	0x3d5dd363	0.054156672
23	0x3dc0a212	0.094059125
24	0xbd5ee29a	-0.054415323
25	0xbe16917f	-0.1470394
26	0xbf14d9d6	-0.5814489
27	0x3e3713ff	0.17878722
28	0xbd159182	-0.03651572
29	0x3e9f5368	0.3111832
30	0x3a82954f	0.000996271
31	0x3d4d6569	0.05014554
32	0x3e52ac29	0.20573486
33	0x3c8bf464	0.017084308
34	0x3f0103f3	0.5039665
35	0xbe0f9b32	-0.14024046
36	0x3dd8ac47	0.10579734
37	0xbeb572fb	-0.35439286
38	0x3e4043ac	0.18775815
39	0x3e0a845a	0.1352705
40	0x3bb7dab9	0.0056107906
41	0xbec41043	-0.38293657
42	0x3f264bc4	0.6495936
43	0x3ea7b4c0	0.3275509
44	0xbf0fee3d	-0.562229
45	0x3f0924d3	0.53571814
46	0x3e9b21e4	0.30299294
47	0xbf00027a	-0.5000378
48	0x3d9a7128	0.07541114
49	0xbe48a55d	-0.19594331
50	0x3d041171	0.032243196
51	0xbdd393aa	-0.10330899
52	0x3f2ffd31	0.68745714
53	0xbdc3f0e9	-0.09567434
54	0x3e073dd0	0.13207173
55	0xbf1ca7d2	-0.61193573
56	0x3e37afa0	0.1793809
57	0x3c88d059	0.01670091
58	0xbefb6563	-0.4910079
59	0xbe6a1a5a	-0.22861615
60	0xbe9d1039	-0.3067644
61	0xbdb37c72	-0.087639704
62	0xbeadafbb	-0.33923134
63	0xbe8788c5	-0.26471534
64	0x3de15c2f	0.11003911
65	0x3eb12a8a	0.34602767
66	0x3e3eeef5	0.18645842
67	0xbee55b80	-0.4479637
68	0x3e91df63	0.28490743
69	0xbe45da00	-0.19321442
70	0x3e36c0ce	0.17846987
71	0x3eae9027	0.34094355
72	0xbf32c060	-0.6982479
73	0x3ea12e2c	0.3148054
74	0x3e4f4ec1	0.20244886
75	0x3f02b500	0.51057434
76	0xbd5c6775	-0.0538096
77	0xbe7d5c42	-0.24742225
78	0x3dfe4c8e	0.124169454
79	0x3dfaadc1	0.12240172
80	0x3d599cec	0.053128168
81	0x3e74e436	0.2391518
82	0xbe00f8e4	-0.12594944
83	0xbe1e74cc	-0.15474242
84	0xbe8a66aa	-0.2703145
85	0x3e067f18	0.1313442
86	0xbec115b4	-0.3771187
87	0x3de66120	0.11248994
88	0xbe4e4a5e	-0.20145556
89	0x3dbba9bd	0.091632344
90	0x3ecd459a	0.40092164
91	0xbe1a43d0	-0.15064931
92	0xbf18c24c	-0.59671474
93	0xbf3403ad	-0.7031811
94	0x3ed298a4	0.4113208
95	0x3d45bb32	0.048274226
96	0xbed8b6c9	-0.42326954
97	0x3ecbda66	0.39815062
98	0x3d89f40b	0.067360006
99	0xbf031271	-0.51200014
100	0xbd3dacbd	-0.046307314
101	0x3f2cfd9c	0.6757448
102	0xbde7e2be	-0.113225445
103	0x3ce645c7	0.028109444
104	0xbea4f060	-0.32214642
105	0xbe50cfb9	-0.2039174
106	0xbf433423	-0.7625143
107	0xbe807558	-0.25089526
108	0x3e67b008	0.22625744
109	0xbed91a44	-0.42402852
110	0x3d65c3e7	0.05609503
111	0xbd671c79	-0.056423638
112	0x3e9cffaf	0.3066382
113	0x3d57a552	0.052647896
114	0xbe872172	-0.26392704
115	0x3e87b4c7	0.2650511
116	0x3da94458	0.08264989
117	0xbec2c542	-0.3804112
118	0x3b81dba4	0.003962951
119	0xbc5b7ae3	-0.013395998
120	0xbb44e4d8	-0.0030043628
121	0x3ebc8ad2	0.36824661
122	0xbf16fac4	-0.5897639
123	0xbb07b8e5	-0.002070957
124	0xbe62aabb	-0.22135441
125	0xbe90b5f0	-0.28263807
126	0xbe9e12cd	-0.3087372
127	0x3e8406e7	0.25786516
128	0x3eb20b77	0.34774372
129	0xbdc36d4d	-0.09542332
130	0xbe688167	-0.22705613
131	0xbe401053	-0.18756227
132	0x3daaa9b4	0.083331496
133	0xbd0e2b0f	-0.034709033
134	0xbe3e41be	-0.18579766
135	0x3e5a6d64	0.21330792
136	0xbef3d9f3	-0.4762722
137	0xbe5e044f	-0.21681331
138	0x3e303f6c	0.17211694
139	0x3e09d61f	0.13460587
140	0xbf109357	-0.5647482
141	0x3e8c95fe	0.27458185
142	0x3db9ff50	0.090819
143	0x3dc31c76	0.09526913
144	0x3e30c19d	0.17261358
145	0x3e8944c0	0.26810265
146	0xbbf2207f	-0.0073891277
147	0x3e956f65	0.2918655
148	0x3ce3f6a1	0.027827563
149	0x3d87d026	0.06631498
150	0xbda3f0bc	-0.08004901
151	0x3dbdca69	0.09267122
152	0x3ee3fdaf	0.44529483
153	0xbec5b8d2	-0.3861757
154	0xbd04af68	-0.032393843
155	0xbd39058b	-0.0451713
156	0xbf0b2acd	-0.54362184
157	0xbf2e1914	-0.68007016
158	0x3e2bade5	0.16765554
159	0xbedd66de	-0.43242544
160	0xbd243430	-0.040088832
161	0x3d2f6849	0.042824063
162	0x3f2d1433	0.67608947
163	0x3f23546f	0.6380071
164	0x3e1c403a	0.15258875
165	0x3efb6178	0.490978
166	0xbeb86f72	-0.36022526
167	0x3f01d145	0.50709945
168	0xbdae1a69	-0.08501131
169	0x3f25cad8	0.6476264
170	0xbef32bb2	-0.47494274
171	0x3d2290b8	0.039688796
172	0x3ec931c6	0.39295787
173	0x3e7eff27	0.2490202
174	0xbee9af0b	-0.4564136
175	0xbd73363d	-0.059377898
176	0x3cb9ca9e	0.022679623
177	0x3cddd1a9	0.027077513
178	0xbe0c568d	-0.13704892
179	0x3d9a5b2d	0.07536922
180	0xbf067979	-0.525291
181	0xbf0f298e	-0.5592278
182	0xbf008c87	-0.5021443
183	0x3f53a23f	0.8266944
184	0x3e44eed1	0.19231726
185	0xbf3806de	-0.7188548
186	0x3f3d5fe1	0.73974425
187	0x3e13abc5	0.14420994
188	0x3ea34ed5	0.31896082
189	0x3b279150	0.002556879
190	0x3f080a6b	0.53140897
191	0x3f315e0c	0.6928413
192	0x3f1566e2	0.5836011
193	0xbde101d5	-0.109866776
194	0xbda8773f	-0.082258694
195	0x3d1e2886	0.038612865
196	0x3d2c90f0	0.04213041
197	0x3ea769d7	0.32697937
198	0x3eab9657	0.33513138
199	0x3c465cf3	0.012107122
200	0xbe2ace32	-0.1668022
201	0xbf611ce4	-0.8793471
202	0x3e239742	0.15975669
203	0x3e8d2901	0.27570346
204	0xbec46f27	-0.38366053
205	0xbed1a0a9	-0.40942886
206	0x3e40112d	0.18756552
207	0x3e5eaed4	0.21746379
208	0xbdc10c57	-0.09426182
209	0xbcc2d200	-0.023781776
210	0xbe14ea12	-0.14542416
211	0x3d25c3ba	0.040469863
212	0xbe3af5f2	-0.18257883
213	0xbe0d72bb	-0.13813297
214	0x3e339c20	0.17540026
215	0xbea4a0ec	-0.32154024
216	0x3f0847bf	0.53234476
217	0xbbf343d4	-0.007423857
218	0xbf1d880e	-0.6153573
219	0xbe45dd43	-0.19322686
220	0xbdaeaf5f	-0.08529543
221	0xbf509b6f	-0.8148717
222	0x3ed018d8	0.40643954
223	0xbf5453ed	-0.8294056
224	0xbdfb4d04	-0.12270549
225	0xbe98c920	-0.29840946
226	0x3e392765	0.18081434
227	0x3f0ec0bc	0.5576284
228	0x3e202c62	0.1564193
229	0xbcebd9fc	-0.028790466
230	0x3ee530b2	0.44763714
231	0x3f0ce8d0	0.55042744
232	0x3e50fc85	0.20408829
233	0x3e6d3807	0.23165904
234	0x3eb08ac1	0.3448086
235	0xbe001f9d	-0.1251206
236	0x3e51b535	0.20479281
237	0xbd9ebc51	-0.07750762
238	0x3d3e2617	0.046423044
239	0x3d328ef3	0.04359336
240	0xbe426d6d	-0.18987055
241	0x3d3730f3	0.044724416
242	0x3dca0c79	0.0986566
243	0xbef79556	-0.48356122
244	0xbd0bc666	-0.034124754
245	0xbde9467a	-0.113903955
246	0xbd02435c	-0.03180252
247	0x3f487ca0	0.7831516
248	0x3efe866a	0.49711925
249	0xbf2f2232	-0.6841155
250	0x3f5d93e7	0.86553806
251	0x3d896e99	0.06710548
252	0x3e95a486	0.29227084
253	0xbe218111	-0.15771891
254	0xbe900f88	-0.2813685
255	0x3ec722e3	0.38893804

fc2.bias f4 [64]
0	0xbe7fe419	-0.24989356
1	0xbe21a0c7	-0.15783988
2	0xbe90e02a	-0.28296024
3	0xbf04d21e	-0.51883113
4	0xbe32c0a0	-0.17456293
5	0x3e802b8f	0.25033233
6	0xbca0c6d2	-0.019626055
7	0xbf03de55	-0.51511127
8	0xbdb2ca33	-0.08729973
9	0xbe93b2c1	-0.28847316
10	0xbd17ad80	-0.037030697
11	0x3d87d91b	0.066332065
12	0xbeb2b529	-0.3490384
13	0x3cc1a541	0.02363837
14	0xbe653d78	-0.2238673
15	0xbe584b22	-0.21122411
16	0xbe9d6157	-0.30738327
17	0xbe45f0d1	-0.19330145
18	0xbe5dbbf1	-0.21653725
19	0xbe62b4a9	-0.22139229
20	0x3d3fb6f3	0.046805333
21	0xbe4c2797	-0.19936977
22	0xbb9637ab	-0.004584273
23	0x3eea6872	0.4578281
24	0x3e9b8fe4	0.30383217
25	0xbcdb2f2c	-0.026755892
26	0xbd763c28	-0.060115963
27	0xbe20611c	-0.15662044
28	0x3ce26145	0.027634272
29	0xbec3f97a	-0.38276273
30	0x3d56bcc3	0.05242611
31	0xbe3bb02e	-0.18328926
32	0xbc306246	-0.010765618
33	0x3b61dda3	0.0034464381
34	0x3c49ee46	0.012324875
35	0xbe31ad25	-0.17351206
36	0xbee55b20	-0.44796085
37	0xbe358d09	-0.17729582
38	0xbf2e420a	-0.6806952
39	0xbebdcaad	-0.37068692
40	0xbd559f2e	-0.05215376
41	0xbd95097f	-0.07277202
42	0xbee453ad	-0.4459509
43	0xbf226425	-0.6343406
44	0xbef497c3	-0.47772035
45	0xbe862b2d	-0.26204816
46	0x3dde67b6	0.10859625
47	0xbe42befb	-0.19018166
48	0x3b959c41	0.004565746
49	0x3bf060c4	0.007335754
50	0x3cb0ed0f	0.021597413
51	0xbeceb0ec	-0.40369356
52	0xbd977ee2	-0.07397248
53	0xbe2f82e5	-0.17139776
54	0xbee4874c	-0.44634473
55	0xbcff1ad3	-0.03114072
56	0xbf06d243	-0.52664584
57	0xbca987eb	-0.020694694
58	0xbea73ec0	-0.32665062
59	0xbe0898f2	-0.13339594
60	0xbe0c4559	-0.13698329
61	0xbede690a	-0.43439513
62	0xbf05a4bd	-0.52204496
63	0xbe90fbbe	-0.28317064

fc3.weight f4 [2, 64]
0	0xbdbfe72f	-0.09370267
1	0x3edc5588	0.43034005
2	0x3f6b1236	0.9182466
3	0x3de7d0d8	0.11319131
4	0x3e09310f	0.1339762
5	0x3d7bd717	0.061484423
6	0x3ed7d239	0.42152575
7	0x3f03bf18	0.5146346
8	0x3e3196dc	0.17342705
9	0xbd68754c	-0.056752488
10	0xbcd46919	-0.02592902
11	0x3f0585d3	0.52157325
12	0xbe8d13ef	-0.2755427
13	0xbe7523f8	-0.23939502
14	0xbdc70837	-0.09718364
15	0xbec57fd5	-0.3857409
16	0xbdeea38b	-0.11652287
17	0x3f00d5c7	0.503262
18	0xbdb6f6d7	-0.089338
19	0xbe4b07a5	-0.19827135
20	0x3f13ed62	0.5778409
21	0x3f503003	0.8132326
22	0xbd899b26	-0.06719045
23	0xbcbd6295	-0.023118297
24	0x3e01c958	0.12674463
25	0xbf1f445d	-0.6221369
26	0xbe021a8c	-0.1270544
27	0xbe06e6b1	-0.1317394
28	0x3f642567	0.8911957
29	0xbf0fe5d1	-0.56210047
30	0xbcddfcf3	-0.027098155
31	0x3f1a4d6c	0.60274386
32	0x3f2dcdf7	0.678924
33	0x3dbef764	0.0932453
34	0xbe242e0f	-0.16033195
35	0x3ed4785c	0.41498077
36	0x3f27cb78	0.65544844
37	0xbca5d76f	-0.020244328
38	0xbee47856	-0.4462306
39	0x3ddb70e2	0.1071489
40	0xbc574f48	-0.013141461
41	0xbeaadf70	-0.33373594
42	0xbf4899c9	-0.7835966
43	0xbcab1e04	-0.020888336
44	0x3f766e80	0.9626236
45	0x3d83e192	0.064395085
46	0x3ca08ec8	0.019599333
47	0x3e69507b	0.22784607
48	0xbd23ddea	-0.040006556
49	0xbeb388f0	-0.35065413
50	0xbe4bc496	-0.1989921
51	0x3d400073	0.04687543
52	0xbe9387cf	-0.2881455
53	0xbe327831	-0.17428662
54	0x3d287fef	0.041137632
55	0x3d9fc219	0.07800693
56	0xbe25e652	-0.16201141
57	0xbefacd7b	-0.48984894
58	0xbe8f85c7	-0.28031752
59	0x3f794f34	0.9738648
60	0xbc836a70	-0.016041964
61	0xbc46d15c	-0.012134876
62	0x3ec47d25	0.38376728
63	0xbeac9bb2	-0.33712536
64	0x3d801811	0.0625459
65	0xbebe083b	-0.37115654
66	0x3e96f29f	0.2948198
67	0x3d7dde52	0.0619796
68	0xbfa1ea77	-1.2649678
69	0xbf944bdc	-1.158565
70	0x3f23e4ab	0.64020795
71	0xbdc98fb0	-0.09841859
72	0xbf5f12c9	-0.8713804
73	0x3f12e3b6	0.5737871
74	0xbd241fbc	-0.040069327
75	0x3eac90a3	0.337041
76	0x3edaaae5	0.42708507
77	0x3d0469d4	0.032327488
78	0xbf08f351	-0.5349627
79	0xbecd124c	-0.40053022
80	0x3eaf076b	0.34185347
81	0x3e876765	0.2644607
82	0xbd90b862	-0.07066418
83	0xbf651bb0	-0.8949537
84	0xbc09ea10	-0.008417621
85	0xbf63524a	-0.8879744
86	0x3e9e0142	0.30860335
87	0xbfe13f5b	-1.759746
88	0xbf195204	-0.5989077
89	0x3c871f8c	0.016494535
90	0xbf86e00b	-1.0537122
91	0xbefa4028	-0.48877072
92	0x3eb56045	0.3542501
93	0xbe188cb6	-0.14897427
94	0xbe975cb4	-0.29562914
95	0x3db4d59c	0.08829805
96	0x3e00c1a3	0.12573867
97	0x3d2ad91c	0.041710958
98	0x3f0690c5	0.5256465
99	0x3f1db98f	0.61611265
100	0xbf00365b	-0.5008294
101	0xbf06ba82	-0.5262834
102	0xbe05b572	-0.13057497
103	0x3e23ee1f	0.16008805
104	0x3c4d052b	0.012513439
105	0xbe114045	-0.14184673
106	0x3fc30a62	1.5237544
107	0x3e35d1bf	0.17755793
108	0x3ef00533	0.46878967
109	0xbf3b79b2	-0.7323257
110	0xbf068f7e	-0.525627
111	0xbf2dcb3e	-0.6788825
112	0xbe92dad3	-0.28682575
113	0x3e95742c	0.29190195
114	0xbf3972bd	-0.724407
115	0x3ea381e7	0.31935045
116	0xbf1b2978	-0.6061015
117	0x3f5522dd	0.8325632
118	0xbf6cad8b	-0.92452306
119	0xbf3a4bec	-0.727721
120	0x3f18d3f7	0.5969843
121	0xbf3a7cfd	-0.72846967
122	0x3f0d4dd4	0.5519688
123	0x3e800562	0.25004107
124	0x3f3edcf9	0.7455593
125	0x3f78c01d	0.9716814
126	0x3f399b9b	0.7250306
127	0x3e938f34	0.28820193

fc3.bias f4 [2]
0	0x3dabb0d8	0.0838334
1	0x3ed6c87d	0.41949835
