p3_collab_compet/model/p3_ddpg_agent0_actor.pth (torch_old, 24554 bytes, 6 tensors)

fc1.weight f4 [64, 24]
00000000: 0dee 923e 6ef0 06bf 8698 b83d a7dd 423e
00000010: dcde cbbe 4eb9 a23e a8b4 a5bd 5636 2c3e
00000020: 960e 073f 0ae7 c5bd 2f9e c83d 5e65 043f
00000030: 6dcb 08bf 99e0 15be 54ac 8f3d 22b5 263f
00000040: ec72 1e3f 384e af3b 8f23 f63d 50f3 0cbf
00000050: 5d21 55bf fa27 793e dff4 1a3e 4221 19bf
00000060: ae82 11bd 71a1 493f 965f 453e c27c 973e
00000070: b7d4 8cbe e9a7 593c ed20 513e e28e 9c3e
00000080: 1f04 573d 32df 593f a444 03be 558c e6be
00000090: ba21 03be fa64 82bd e422 2abc 7a97 f8be
000000a0: ad1f 4fbc acfd 1b3f 5f34 123e 6ae7 0fbf
000000b0: 0893 2d3c 521c a8bf 4c8c f33c eb9c 18bf
000000c0: ba69 643e ff89 f63e 67a5 d03d ccda dd3e
000000d0: cedb 273e f0b6 843e 08a1 4e3d f088 df3e
000000e0: 7112 c83d e871 203f 2011 5ebc a239 1f3c
000000f0: 1464 b93d b91e 12bf 540f 513d 1b93 e03d
00000100: 4759 473e 8ee9 323f 459e 913d b731 02bd
00000110: 2a08 353d 94ce 17c0 349c 663e 04f1 f4bb
00000120: a816 a23e 3041 88bf 6cd6 c3bc 6b63 ec3d
00000130: 6a4d 62bd 7a6d c13d e54f 29be 0a16 d8bd
00000140: 527c 153f c750 81bf f2a9 40bd 7467 c5be
00000150: 438a e2be ca75 42bd 99e9 bfbc f1d0 67be
00000160: 6a62 003f e293 39bf 571d cd3d a1f7 8c3e
00000170: c33a 18bf 1d19 aebe fae3 d5bd 8316 aa3e
00000180: 4584 1c3f 313f 1cbf bef3 d93d 245f b43c
00000190: a30d 33bf fcaa 4f3d 6e95 55bb bf42 063d
000001a0: e710 203f 8436 dcbe e3fd 293e c9d3 cb3d
000001b0: 7071 39bf 18fc b9be e57f 1f3d fb6b 0e3e
000001c0: 6699 fd3e e400 f6be afa1 3a3c 793b bebe
000001d0: 0207 81bf a599 d33d 586c 9e3d 1f0c 05bf
000001e0: 9e86 57be 8743 20bf fc63 51bd 27d8 d3be
000001f0: 540f fb3e c56c 84bf bdff a9bd 101a f8be
00000200: aa75 a1bd 19e5 1ebf d1fb c53d cc5e 7cbd
00000210: f67a 273e db7c 153c dee8 1a3d 1d2b 72bc
00000220: 7800 23be 2cc6 eabe a29e 12bc 9ba8 f43d
00000230: 0b7e 273e 3b5d ae3f 6b2a 96bc 687c 183e
00000240: 93e1 d2bb ea51 673f b67b 03bd 0f58 48be
00000250: c717 623f 0eb9 f3bb 42f4 30bd 02e8 3bbe
00000260: 347f 413d eecb 793f b7ce debd 44d5 d03c
00000270: db7a ee3e b47b 77bf 1780 68bd 7b2a 6cbd
00000280: 4b10 55bd 19bb 7f3f 1f05 a13e d502 8f3e
00000290: 16fc 3ebe 7cbf debf 8d75 783e a55a 1a3e
000002a0: 3208 b93e fb79 c33e 3790 123d b3bc 763e
000002b0: 9199 48bf 4447 36be 2c49 7b3d 0fb6 963e
000002c0: 1e12 883e 218b da3e a305 0fbe a889 ee3d
000002d0: 254d 20bf 56df b9be b49c 1fbe 6458 e03c
000002e0: efb7 b53e e249 b63c a7db 33be 6056 283e
000002f0: 5a42 10bf 724b ab3c bec7 11be de84 973c
00000300: a1cb 393e 68ad 95be f3c6 0cbe 153d 02bf
00000310: 0266 6cbc e0fe 5abf f4e7 8ebc d911 3ebf
00000320: 1c4f a73e 2045 eabe 7da5 4dbd 125d 973c
00000330: 2a68 463e abbd 9ebe 4681 ffbc 48ff 0cbe
00000340: 5efa 12be ad57 6dbf 417e 13bd 08c7 033e
00000350: 7af1 583f 4ba3 e23e 5178 90bd e81f 6d3e
00000360: 3373 a33e ca3b 223d 90d8 5dbd 0779 24bc
00000370: b3ea 0ebf e4ed 68be 152b a6bd c97c a03d
00000380: 606d c63e 6d90 34b9 e958 4fbc b1d8 973d
00000390: e5b4 043f e7fd bd3d f3ab 60bc 3149 a93d
000003a0: 9214 d43e 41ce 983e 3a1f c83d a38b 263e
000003b0: 2ba9 e53f 685b cc3d 8908 f03d f49c f43d
000003c0: 0997 4d3a c1b5 3b3d becd b73d ae3d 04be
000003d0: 5aa2 87bf 8411 e53e 7c62 cebd 358a 253d
000003e0: 7359 a9bd 0387 993c f14a 813d 52c3 00be
000003f0: d46b 043d da83 4a3e 0bc8 36bd a896 8fba
0.28697243 -0.52710617 0.090134665 0.19029866 -0.39818466 0.31782 -0.08091098 0.16817603
0.5275663 -0.09663208 0.09795796 0.51717174 -0.53435403 -0.14636458 0.07015291 0.65120137
0.61894107 0.0053499006 0.12018501 -0.55058765 -0.83254033 0.24331656 0.15132473 -0.5981637
-0.035525016 0.78761965 0.19274744 0.2958737 -0.2750604 0.013284662 0.20422716 0.3057776
0.052494165 0.85106194 -0.12819153 -0.4502894 -0.12805834 -0.06366916 -0.010384295 -0.48553067
-0.012641829 0.6093395 0.1427779 -0.56212485 0.010594137 -1.3133643 0.029729985 -0.5961444
0.22305956 0.48152158 0.10187798 0.4333099 0.16392443 0.2592082 0.05044654 0.43659163
0.097691424 0.6267381 -0.013553888 0.009718331 0.090522915 -0.5707813 0.05104001 0.10965558
0.1946765 0.69887626 0.07110266 -0.031785693 0.04419724 -2.3719835 0.22520524 -0.0074750204
0.3165791 -1.0644894 -0.023905955 0.115424 -0.05524961 0.09444709 -0.16534384 -0.105510786
0.5839282 -1.0102776 -0.047037072 -0.3855549 -0.4424611 -0.047475614 -0.023426818 -0.22638299
0.5015017 -0.72491276 0.10015362 0.27532676 -0.59464663 -0.34003535 -0.10443874 0.332203
0.6113933 -0.6103392 0.10642193 0.022018023 -0.69942683 0.050700173 -0.0032590288 0.032778498
0.6252579 -0.43010342 0.16600756 0.09952504 -0.72438717 -0.36325145 0.03894033 0.13908379
0.49531096 -0.48047554 0.011391087 -0.3715475 -1.0080264 0.1033204 0.07735509 -0.5197162
-0.21047446 -0.6260304 -0.051120743 -0.4137585 0.49035132 -1.0345694 -0.08300731 -0.48457384
-0.07883771 -0.62068325 0.09667171 -0.061613843 0.163555 0.009124006 0.037819736 -0.014780787
-0.15918148 -0.45854318 -0.008948954 0.119462214 0.16356675 1.3622202 -0.018330773 0.14891207
-0.006435582 0.90359366 -0.0321004 -0.19564842 0.8831753 -0.0074378317 -0.043201692 -0.18350223
0.04724045 0.97576797 -0.108792715 0.025492318 0.46578106 -0.9667313 -0.05676278 -0.0576577
-0.05201749 0.99894863 0.3144922 0.27931848 -0.1865085 -1.7402186 0.24263592 0.1507364
0.36139065 0.38179 0.035782065 0.2409542 -0.78359324 -0.17800623 0.06134908 0.29435775
0.26576322 0.42684272 -0.13966994 0.116473496 -0.62617713 -0.36303204 -0.15587121 0.027385898
0.35491893 0.022252027 -0.1756426 0.164392 -0.56351244 0.020909999 -0.14236352 0.018495973
0.18144085 -0.2923386 -0.13747768 -0.50874454 -0.014428617 -0.8554516 -0.017444588 -0.74245983
0.32677543 -0.45755863 -0.05020665 0.018476997 0.19375673 -0.3100408 -0.031189572 -0.13769257
-0.1435332 -0.9271191 -0.036009077 0.12868893 0.84743464 0.44265208 -0.070541985 0.23156703
0.31923828 0.0396078 -0.05416161 -0.010038621 -0.5582687 -0.22746998 -0.08113686 0.07836301
0.38755322 -0.0001721994 -0.012655475 0.074143775 0.51838523 0.09276944 -0.013712871 0.08265913
0.41421944 0.2984486 0.09771581 0.16264205 1.7942251 0.09978372 0.11720378 0.11943999
0.00078426354 0.04582763 0.08974789 -0.12914154 -1.0596421 0.44739926 -0.10077378 0.040415008
-0.08269014 0.018741136 0.06313122 -0.12574509 0.032329395 0.1977686 -0.04462437 -0.0010954933

fc1.bias f4 [64]
00000000: 3a38 37be 0a7f 8bbd a439 f43d 0960 92be
00000010: 7fdb a7be 1ce4 87be 3686 473d 8980 82be
00000020: 8d8d 9dbd 5b33 12bf 84f9 aebd b1f8 953e
00000030: 09d3 c9be 96b3 c8be cd6f ddbe 10e0 c4bd
00000040: 1c27 85be 2106 ca3e 08ef 4bbe eddc 26bf
00000050: b07e 22bd 834b d2be 0c39 90be 14be 83be
00000060: df32 02be e971 393e 9130 f8bd cb66 823c
00000070: a71f 91be 16b4 14bf c5cc 8b3e 01aa 2b3d
00000080: 87a6 063f 5fa6 313c bc66 69be c004 933d
00000090: 1432 00bf 6545 0fbf b8be 973d 8b8b 113e
000000a0: df3d d1be 91f6 213e 3168 25bf b1f5 9abe
000000b0: 2a61 623d 7469 0bbe 0e61 9fbe d93d 89be
000000c0: afa4 debe cfa5 9cbe 898a 54be 0556 d9be
000000d0: 3301 0cbe fd08 1bbf 5df2 c9be 934f abbe
000000e0: 50e2 c5be 38f0 24be b1af 373e 5b84 26be
000000f0: c3b9 c3be 8cde c4be e30c 9abe bd95 17bf
-0.17892542 -0.0681134 0.119250566 -0.28588894 -0.3278465 -0.2654122 0.048711978 -0.2548869
-0.07693014 -0.5710961 -0.08543685 0.292913 -0.3941882 -0.39199513 -0.4324936 -0.09613049
-0.260064 0.394578 -0.19915402 -0.65180856 -0.0396716 -0.41073236 -0.28168523 -0.25730956
-0.12714718 0.1810986 -0.12118638 0.015918156 -0.2834446 -0.5808729 0.27304664 0.041910175
0.5259785 0.010842889 -0.22793096 0.0717864 -0.50076413 -0.5596526 0.074094236 0.14213388
-0.40867516 0.15816714 -0.6461211 -0.30265573 0.055268444 -0.13614446 -0.31128734 -0.26805
-0.4348502 -0.30595252 -0.20755972 -0.4244844 -0.13672332 -0.6056059 -0.3944272 -0.33459148
-0.38649225 -0.16107261 0.17938115 -0.16261427 -0.38227662 -0.3845104 -0.30087957 -0.5921286

fc2.weight f4 [64, 64]
00000000: 05d5 53bd 9363 92bd f664 dd3c 2a5d 163d
00000010: d176 813d c0f5 1dbe 2b42 97bd fe12 c8bd
00000020: d1c8 32be 8503 4abc 68f9 98bc 6055 773d
00000030: afdb debd 63c2 c8bd a271 7ebd a413 57bd
00000040: aee4 29be 7ed7 d3bd 53e1 31be 2691 c4bd
00000050: 88e3 05be 95b4 0bbd ce00 c1bc c248 3ebe
00000060: 0d38 163e bde6 47bd 4c91 8ebd cfac 10be
00000070: 887c 02be 51ae b53d 64fe 383c 56dd 4d3d
00000080: e303 98bd 4572 37be 01dd 4939 5afd 10be
00000090: 7ac0 55be abac 95bc aad7 c9bd cacc 50be
000000a0: 1098 f03c 933c 07be 48de 813c 48bd 083d
000000b0: 98fc 1bbe 8ceb ecbb b3dc 203c 817e 92bd
000000c0: 160d 04be 11a8 4dbe 8d88 4bbe d8b7 31be
000000d0: 6353 b43d 3f8e 05be f96a 5fbd 0482 29be
000000e0: 6d4e 1e3c c596 1cbe a3df 56be 58eb eabd
000000f0: d135 02be 4752 323d 79dc f4bd 28e5 bb3d
00000100: e4f5 e83d 86ee f53d f9ec 99be f012 b837
00000110: a57b 52be 0ef1 163d 24c5 173e bc8b edbb
00000120: 6a65 fb3e dfa5 253f 4538 3d3e 44eb 2c3f
00000130: b0e1 5cbd f013 663e 9f54 d83e 2f65 d03e
00000140: 10ac 6c3d b5e2 053f 59f7 883e 6a2c a63e
00000150: 21ac 813e 14cf 09be 00bb 08bf 53e8 02bf
00000160: 8744 6d3e 907d 8cbe df89 d1bc ba75 3c3e
00000170: e66a 0ebf cfdb 443b 779e 093f 166a 103e
00000180: e9d3 923f d436 363d 4ae9 123e 22f6 023e
00000190: 54d6 233e efe8 87be a519 6fbd 4d8a 813f
000001a0: 7219 00bf b2ce 4abe 5450 003f 3115 e93e
000001b0: f16e 0fbe 7baf 99be 8715 eebd 39c1 d63d
000001c0: 16eb 49be da5a 163e abe8 cbbe 2051 603d
000001d0: a343 c93e be9f 3a3e 2047 793e 6930 343e
000001e0: 4413 5e3e 8ac2 dcbe dab8 73be 6444 26be
000001f0: 5ad3 0d3e f5ef 423e efd0 85bd bdf4 11bf
00000200: d759 01bf 3d17 e53d 48f2 bfbe 6c31 e33d
00000210: 753c 463e 5d01 58be 96d7 e9be 8516 953e
00000220: aca2 3e3e 57e0 753f befe 2d3f 41de 133f
00000230: 76d7 08bf 2326 da3e aea6 673f 058e ecbe
00000240: ebb4 023f d578 363e e66b eabd 0623 99bd
00000250: 41ca 933d 1f7e 253e c55e f93c ddbb 903d
00000260: a7c1 093f 8d22 543f 07c5 863e b1ad 10bf
00000270: 5dcf 69be 2b49 25bd 3360 55bc 0f70 e1be
00000280: 547b dc3e e8b7 163d 7181 85be cb68 173e
00000290: 086b 4ebe a3b0 763d e8e1 1abd 4133 013f
000002a0: e63d 033f 5cb0 80bc e1f2 b93d 3747 803d
000002b0: 530c 28be 8bb9 1dbd 5e90 1abe 3241 eabe
000002c0: d712 04be af9b f1be e522 94be 7a6f 47be
000002d0: 5a12 33bd 8f0d ce3d 8b74 65be b456 58be
000002e0: 8ecf 81be 4d40 60bf 7d6f 2ebd a6c4 a73d
000002f0: d88e d53e 45fd f63d 231f b93d 4e7f 60be
00000300: 20d6 26be 77fe 433e f3ae b1be 8793 973e
00000310: df63 81be 90ee cebe 62b3 25bf b4a1 4f3e
00000320: 56b4 52be 43aa e7be 9ce7 0e3f 0d67 ba3e
00000330: aa0d cbbe 7395 ddbe 636c 533d d4fb 183e
00000340: 8771 71be 805b dd3e 5864 dd3d e552 89be
00000350: 795c e2be 9efd e53d a312 6d3e ec6f f3bd
00000360: 53f0 7cbe 20a1 ffbe 6ee0 c43d 051f 87be
00000370: 2859 8abe 5707 8dbf 752f ed3e 5a13 3b3e
00000380: d053 1a3f 208b 2fbf 94c2 aabe 3ce0 57be
00000390: 7420 b33e 8e95 7d3d 0d39 263e 6767 173f
000003a0: 5f12 ccbd 7aa8 8f3e 68bb 5abe aa67 9d3d
000003b0: 63a9 943d 11e3 15bd 916b afbe b5e2 1abf
000003c0: 6da7 28bd 0408 a6be 345f debe 45ba b03d
000003d0: 1868 ca3e 844a 633d 6bd1 d43e d545 073f
000003e0: 643c fe3b 0c3b 20bf 226a 40bf b930 d0bd
000003f0: ca15 373d b7ea 023b f639 a63c fd1e 40bf
-0.051716823 -0.071478985 0.027025681 0.036709942 0.063214906 -0.15425777 -0.073856674 -0.097692475
-0.17459418 -0.012329941 -0.018673614 0.060384154 -0.10881745 -0.09802701 -0.062120087 -0.052508965
-0.1659114 -0.10343836 -0.1737111 -0.09597997 -0.13075078 -0.034107763 -0.023559954 -0.18582442
0.14669819 -0.048804034 -0.06961307 -0.14128421 -0.12742817 0.08871139 0.01129112 0.05025991
-0.07422616 -0.17914684 0.00019251184 -0.14159146 -0.20874205 -0.018270811 -0.09855588 -0.20390621
0.029369384 -0.13206701 0.015853062 0.033383638 -0.15233076 -0.007230228 0.009818244 -0.07153035
-0.12895617 -0.20083643 -0.19876309 -0.17355287 0.08804967 -0.13042544 -0.054545376 -0.16553503
0.009662253 -0.15291889 -0.20983748 -0.114706695 -0.12715842 0.043535497 -0.11956114 0.091745675
0.11375025 0.12008385 -0.30063608 2.1943328e-05 -0.20554979 0.03685098 0.14821297 -0.0072493237
0.4910081 0.64706224 0.18478496 0.67546487 -0.05392617 0.22468543 0.4225206 0.40702197
0.05778128 0.5229905 0.2675121 0.3245576 0.25326636 -0.134579 -0.5341034 -0.5113575
0.23170672 -0.27439547 -0.025578437 0.18404284 -0.55631864 0.0030038243 0.53757423 0.14102969
1.147092 0.044485882 0.14346805 0.12789205 0.15999728 -0.26544902 -0.058374066 1.0120331
-0.50038826 -0.1980541 0.5012257 0.4552398 -0.14007165 -0.30016693 -0.116252 0.10486073
-0.19718584 0.14683095 -0.3982595 0.054764867 0.39309415 0.18225 0.24343538 0.17596592
0.21687037 -0.43117172 -0.23800984 -0.16237026 0.13850155 0.19036849 -0.065339915 -0.57014066
-0.5052771 0.11186073 -0.37489533 0.11093411 0.19359 -0.2109427 -0.45672292 0.29118744
0.18616742 0.9604544 0.6796683 0.5776101 -0.5345377 0.4260722 0.9048871 -0.46202102
0.5105731 0.17819531 -0.11446361 -0.07477383 0.07216311 0.16161393 0.030440697 0.07067082
0.53811115 0.8286522 0.26322195 -0.5651503 -0.22833009 -0.04035298 -0.013023424 -0.44030806
0.43062842 0.03679648 -0.26075318 0.14786069 -0.20158017 0.060227048 -0.037813097 0.5046883
0.51266325 -0.015709095 0.090795286 0.06263583 -0.16410951 -0.038507026 -0.15094134 -0.45752865
-0.12897812 -0.4718909 -0.28932872 -0.19476119 -0.043718673 0.1006118 -0.22407739 -0.21126825
-0.25353664 -0.87598115 -0.042586792 0.081918046 0.41710544 0.12060026 0.09039142 -0.21923563
-0.1629262 0.1914004 -0.34703788 0.29604742 -0.25271508 -0.40416384 -0.6472684 0.20276529
-0.20576605 -0.45247087 0.5582216 0.36406747 -0.39658862 -0.43278083 0.051617038 0.14939815
-0.23578463 0.4323387 0.10810155 -0.26821056 -0.44211176 0.11230014 0.2315164 -0.11886582
-0.24701051 -0.49927616 0.09613119 -0.26390854 -0.27021146 -1.1017865 0.4632527 0.18269101
0.6028414 -0.6857166 -0.33351576 -0.21081632 0.34985697 0.061910205 0.162327 0.59142154
-0.099644415 0.28058225 -0.21360552 0.07685788 0.072588705 -0.0365935 -0.34261754 -0.6050218
-0.041175295 -0.3242799 -0.4343201 0.08629278 0.39532542 0.055490986 0.41566023 0.5284093
0.007758664 -0.625901 -0.75161946 -0.10165543 0.044698514 0.0019976327 0.02029131 -0.75047284

fc2.bias f4 [64]
00000000: 1e14 14be f76c 4dbe 25d1 a1be 7bd6 8cbd
00000010: 6fca d3bc b743 913e 0942 093e ca3a 6ebd
00000020: f71d 6e3d ed01 953e 9cd0 73be 3d53 98be
00000030: b86a 343d 4a9c 0cbc 4098 2bbe 08d0 acbe
00000040: 60f3 80bd 7108 c93d a9da cabd 6ac7 323e
00000050: 4459 923e 32f2 323d 17f4 f9be ad35 11bd
00000060: b91d 163d 7fdb 093e 30aa c9be 75f8 7b3e
00000070: 1b3f d33d 80b6 cabd 2512 4f3d c831 8fbe
00000080: 3b43 a3bd 15d2 4fbc 3678 ccbd 67cc f8bc
00000090: d058 21be 17b9 09be 4c9a debd dba6 15bd
000000a0: 419b 893c cd95 13be b983 e7bd 0ba9 963e
000000b0: 6ef3 a0bb 36ac 76be 52a2 a93c d76c 7abe
000000c0: 67a6 693e 26af 843b 5a46 3f3e d540 ddbd
000000d0: e313 5bbe 4ebc 1e3d d130 4a3e 392f 263e
000000e0: 5de8 5ebe 1e87 e03d 86e3 59be 68f7 87bd
000000f0: 6d78 0b3e f270 50be 92e8 f2bd eb7f 64be
-0.14460799 -0.20061098 -0.31604877 -0.068768464 -0.025853364 0.28371975 0.13404097 -0.058161534
0.058134045 0.29103032 -0.23810047 -0.29751006 0.044047087 -0.008582184 -0.16757298 -0.33752465
-0.0629642 0.09816063 -0.09904987 0.17458883 0.2858373 0.043688007 -0.48819038 -0.03545158
0.03664944 0.13462637 -0.39387655 0.24606498 0.10314771 -0.0989809 0.050554413 -0.27967668
-0.079718076 -0.012684365 -0.09983866 -0.030370904 -0.15756536 -0.13449512 -0.108692735 -0.03653608
0.016797664 -0.14412613 -0.11304421 0.29425845 -0.0049118316 -0.24089131 0.020707283 -0.24455582
0.22817384 0.0040491996 0.1867918 -0.10803381 -0.21394305 0.0387538 0.19745184 0.16228952
-0.21768327 0.109632716 -0.212782 -0.06638986 0.13620158 -0.20355585 -0.118607655 -0.22314422

fc3.weight f4 [2, 64]
00000000: f7ec 273d bec8 883e 8f05 353e d8b5 7b3e
00000010: 1266 2b3f 484b fe3d 598d 563c 359e 86bb
00000020: 0432 7b3d fd37 c5bb 7e47 2a3d 23d2 2abf
00000030: 3e95 e0be 04dc 9ebe 49f0 89be 683d 2abf
00000040: 2d97 82be b52f 463c db30 a2be b85c 6cbe
00000050: 5bb8 e53c 1e6b e53d 5f33 3fbf a6bf c13e
00000060: 4c2b 393d e0d6 73be 2f03 043e 8d9b a5be
00000070: 061e d53d 25e9 283f 370d a63e e87b cc3e
00000080: b1a3 543d 6b54 53be d335 0d3c 9246 c83e
00000090: 05f8 893e 293c 3e3e 24d2 f7be 3754 82be
000000a0: e3cd 6dbe db29 5dbe 6cfc 61bd ea59 423f
000000b0: 1bbf 1dbe 08c0 80be 32b5 d33e ff0a 24bf
000000c0: b812 e9be 7dca 31bd a977 b4bd 0135 9c3e
000000d0: 7c8c 5c3e 6e37 233f 8ee3 36bf b423 8abe
000000e0: 0601 f3be 071b f63d adac 013f 9afa 83bd
000000f0: 95f0 e9be ceb4 aebf 64e5 1d3d f2a3 54be
00000100: d699 e0bc 213a 0bbd 0792 9e3e 670b 123e
00000110: 70ad 2c3f 1d52 173f 35c8 e9bd 1f84 083f
00000120: 65c5 14bf 439d 72bf e35a 54bf f789 31be
00000130: f2d4 20bf c2c8 99be 315a e2be 9189 bfbe
00000140: 7d63 3cbe 0564 88bd e671 003f daf5 753b
00000150: cb1f 8cbf 7f02 46be 46b6 973e de10 293f
00000160: b866 e4be df3c 50bd 40e3 603f dff1 a5bf
00000170: 38cd 51be 6601 51be 0803 7d3e 10e8 90bf
00000180: d57c 8bbe 3d62 d33e 81df 023f 0208 3d3e
00000190: da32 ba3c e06c a8bf bd7a f6bd 58e3 07bf
000001a0: 8be3 7e3e 18b2 48bf 8c00 d23e b495 a3bf
000001b0: 1463 5bbf 6b76 053e 1ebf 3d3e 62fa d43e
000001c0: 6c18 2f3f 3178 e33e 98ab 0bbf 4533 8b3e
000001d0: 0535 eb3d c275 e73a 1f15 2bbf 1c62 62be
000001e0: 7bf4 f9be 6ca7 9bbe 28f0 08bf 6074 08bf
000001f0: b249 133f 568b c53e 78f4 a9be 7792 c93e
0.04099747 0.26715654 0.17677902 0.24581087 0.6695262 0.124167025 0.013095223 -0.004108215
0.061326995 -0.006018637 0.041572087 -0.66726893 -0.43863863 -0.31027234 -0.26941136 -0.6649995
-0.25505963 0.012096335 -0.316779 -0.23082244 0.02804201 0.112020716 -0.7468776 0.3784153
0.045207307 -0.23812437 0.1289184 -0.32345238 0.10406117 0.6598075 0.32431957 0.39938283
0.05191392 -0.20637672 0.00861879 0.3911634 0.26947036 0.18577637 -0.48402512 -0.25454876
-0.23223071 -0.21597998 -0.05517237 0.7591845 -0.15404932 -0.25146508 0.4134918 -0.6407928
-0.45522094 -0.043406 -0.08811886 0.3050919 0.21537966 0.63756454 -0.7144097 -0.26980364
-0.47461718 0.12016874 0.5065411 -0.06444283 -0.45691362 -1.3648927 0.038548842 -0.20765665
-0.027417105 -0.033990983 0.30970785 0.14262162 0.67452145 0.5910967 -0.114151396 0.533266
-0.581137 -0.9477121 -0.8295118 -0.17337786 -0.6282493 -0.3003598 -0.44209436 -0.37409642
-0.18397327 -0.06659702 0.50173795 0.0037530572 -1.0947202 -0.1933689 0.2963125 0.6604136
-0.44609618 -0.0508393 0.87846756 -1.2964438 -0.20488441 -0.2041069 0.24708188 -1.132082
-0.27243677 0.41285887 0.5112229 0.18460086 0.022729326 -1.3158226 -0.12035129 -0.53081274
0.24891488 -0.7839675 0.41016042 -1.2780061 -0.85698056 0.13033454 0.18529937 0.41597277
0.6839664 0.44427636 -0.54558706 0.27187553 0.11484722 0.0017658996 -0.66829103 -0.22107738
-0.48819336 -0.3040117 -0.5349145 -0.53302574 0.57534325 0.38582867 -0.33194327 0.39369556

fc3.bias f4 [2]
00000000: 3a13 89be e71b 9fbe
-0.2677248 -0.31075975
